weather_tcn_mdn_full.pth (torch, 327885 bytes, 22 tensors)

bias f4 [64]
00000000: 967d 11bc 27f8 bd3a fd28 83bb ccd7 82ba
00000010: 0c26 cfbc 4d96 e739 f94f f13b 29b7 673c
00000020: 0758 573a dce8 aeb8 de69 66bc cff9 b638
00000030: a0f5 0bbd f509 4c3a 0f71 83b8 b893 9b3c
00000040: d456 fcbb 5261 7e3b 17c3 87bc 9ded ce3c
00000050: 1729 8b3d c79d 56bc 6b9f 1b3d dedc 83bd
00000060: f1f0 dd3a b233 0abc 026d 5139 9789 983c
00000070: 7b3b e5bc 628f db3c 81b3 e1bd b220 623d
00000080: 3f09 a53c 4dbf 89bc 3e3f 793b 5f65 443d
00000090: abef 613c 1812 ae3b 078c 1ab9 0199 223b
000000a0: b57d 063c 4745 31bb a126 b2bc 7d5e 853d
000000b0: 9a34 8cba 22b9 feba 9117 bb3b 1994 5ebc
000000c0: b02b 7e3b 00b2 26bb c2dd 07bd c69a e53a
000000d0: d813 b33b 4217 bcbc 56d4 8c3c dcba 31b8
000000e0: e1d4 0cba e8ef 303b 09d1 9a3c 400a 2f3d
000000f0: 2fd1 19bc 2b5b 50bc 1663 433c 729f 1d3b
-0.00888004 0.0014493511 -0.004002689 -0.0009982525 -0.025286697 0.00044171736 0.00736427 0.01414279
0.0008214716 -8.34034e-05 -0.014063327 8.724967e-05 -0.034169793 0.0007783466 -6.2676256e-05 0.018991336
-0.0077007804 0.0038815332 -0.016572518 0.025259787 0.06794947 -0.0130991405 0.03799383 -0.064386114
0.0016932768 -0.008435177 0.00019972402 0.018620295 -0.027982464 0.026801769 -0.11020566 0.055206962
0.02014601 -0.016814852 0.003803208 0.047948238 0.013790051 0.0053122155 -0.00014738749 0.0024810436
0.008208682 -0.002704935 -0.021746935 0.06512163 -0.0010696829 -0.0019433836 0.0057095964 -0.013585114
0.0038783364 -0.0025435686 -0.03317047 0.001751744 0.005465012 -0.022960309 0.017191093 -4.2374115e-05
-0.00053722976 0.0026998464 0.018898504 0.042734385 -0.009388252 -0.012717049 0.011925479 0.0024051336

weight_g f4 [64, 1, 1]
00000000: 7048 3e3d 0ae6 3abd 42be e23c b83f f5bc
00000010: 84e8 cb3c 7b36 9d3c 14c7 043d 9500 9a3c
00000020: d15b 7f3c f632 a23c 8038 223c b520 adbb
00000030: da4b 273d aeec 2dbc f67b d7bc 65e2 4d3d
00000040: 8622 2fbc 6b95 2d3d 98cb 383d d97f 1a3c
00000050: f364 983d 86a9 c43c abf7 273d cf35 c33e
00000060: 773d f33c 985b 163d cc44 06bd 2623 a1bb
00000070: 0cb4 cf3c 798d d83c ab92 c43d 7fa0 713d
00000080: eeea 703c d1c0 84bc b442 18bd af25 323d
00000090: 8b98 a13b 56b3 3c3d f3c5 fdbc 5109 e33c
000000a0: 5e52 833d e593 053d 5f59 073d 1ed0 773d
000000b0: 969b f43c 373c 383d e971 f13c f5ea 58bc
000000c0: 3545 7fbc 2252 d93c b449 e33c 8ed7 cc3c
000000d0: 9e05 ed3c a494 db3c c69d e53c b452 82bc
000000e0: 764e e8bc 1dac 85bb 5cfd d53c 80ee 353d
000000f0: 94ab 8b3e 8d24 573c e986 103d 6f49 c0bb
0.0464558 -0.04562954 0.027678613 -0.02993761 0.024891146 0.019191017 0.03241642 0.018799106
0.015585856 0.01979969 0.009901166 -0.00528344 0.040843822 -0.010615511 -0.026304226 0.050264735
-0.010689383 0.042378824 0.045116037 0.009429895 0.074411295 0.024006616 0.04100768 0.3812699
0.029692395 0.036708444 -0.032780454 -0.00491752 0.025354408 0.026434647 0.09598287 0.05899095
0.014704449 -0.016205223 -0.037172988 0.04349297 0.0049315146 0.046069466 -0.030978179 0.027714403
0.06412195 0.032611746 0.033044215 0.06050121 0.029859345 0.0449793 0.029473262 -0.013239612
-0.015580465 0.026528422 0.027745105 0.025005128 0.028933343 0.026804276 0.028029334 -0.015908577
-0.028357726 -0.0040793554 0.026121788 0.044416904 0.2727934 0.013131273 0.03528491 -0.005868129

weight_v f4 [64, 26, 3]
00000000: d9d5 6138 3e84 1838 e51d e437 b849 85b9
00000010: 9f24 2ab9 28cd dfb8 1a16 4f3a 384a 5d3a
00000020: 6632 683a 8128 dab9 5544 b3b9 2073 8db9
00000030: 43f3 8437 5aa6 b237 5916 8937 3c10 5738
00000040: 82ba 9b38 3532 9938 7fe0 a039 57f9 9339
00000050: bc6c 9039 22fe 153a 0297 b839 2d46 6439
00000060: 63f7 eb39 e08b 5739 1b8b afb8 9f4e 82ba
00000070: 2e6e 97ba 67f9 a0ba b351 be3b 37ae ce3b
00000080: 284f e63b 49ba 41bb 6c89 6ebb 47e9 92bb
00000090: bc6a c6ba d446 c5ba 229c c4ba 6fb0 e53a
000000a0: 9fcf e73a d56d ea3a 528e aab9 3f3e 81b9
000000b0: 6591 31b9 c241 3e39 f16b 4d39 5a56 4839
000000c0: 8551 bdb9 7e52 bdb9 2054 bdb9 0ae4 0e3a
000000d0: 4583 fd39 1249 e339 1675 9938 aa07 8238
000000e0: 3e55 6038 47a6 d0b6 372c b7b6 86f9 e6b7
000000f0: 87dd 6339 a397 6839 0710 6939 192b 0d38
00000100: e7db 0837 228c 0ab7 c24f 63b9 fe23 57b9
00000110: cd6f 22ba ed63 6939 2cfe 2538 d291 fdb8
00000120: 9408 2cba f06f c6b9 f41b 023a dab7 8239
00000130: d5c2 2239 5fed 31b9 dcd1 ef38 0cfe 1e38
00000140: 3095 16b8 8030 2b39 1f3d 073a 0e5d 473a
00000150: 9a1e 9039 3bfc 7a39 349c 4039 5f15 96b9
00000160: 7045 38b9 46c9 e6b8 0614 dc37 4f79 cb37
00000170: 65cd 0838 7c7e e537 8a82 7038 48ef b438
00000180: b8cd 163a d405 113a 22d3 0a3a 0f62 9a39
00000190: 2f9e d2b9 49a3 72ba 9425 4e3b 12f4 dc3a
000001a0: 3523 7a39 2813 acbb b6ea c0bb fcce c5bb
000001b0: 9f84 c6ba 4e57 c2ba 282e d1ba 2245 0d3b
000001c0: 1629 253b 0258 483b 0bd2 0bbb 8caf 0bbb
000001d0: 2c81 0bbb 35b4 6b3b 268a 6c3b 34b6 6d3b
000001e0: a485 34b9 8f07 3139 ad13 f739 ba7f 143a
000001f0: c81c 293a 7837 163a de7b 35b9 f53c 31b9
00000200: 3c6a 30b9 7217 1e3a bbad 1b3a b20f 163a
00000210: c790 4139 218f d738 bad8 2a38 38f0 6fb8
00000220: fd82 e5b7 bee3 7b37 19ea ed38 06c2 f838
00000230: 3afa 0639 8b1c c3b9 809c c3b9 1fa6 c9b9
00000240: e97f 7cb9 54dc 8ab9 852f 40b9 b87b f438
00000250: 3455 b0b7 271a 73b9 ca3a 68b9 d418 4eb8
00000260: f05c 6139 5e8a 0639 6308 bc38 9656 33b8
00000270: cd8d 4b39 03e0 3fb5 25b4 43b9 a412 03ba
00000280: ff7f 2aba c5d3 3cba 43d5 3339 dafc 3d3a
00000290: a8fb aa3a f13d 62ba bd6c 2eba e1b4 fab9
000002a0: dc3a 1d39 5543 1239 f2d5 1739 8cf7 da36
000002b0: a706 ee38 b894 7b39 82dd b63a b04b 913a
000002c0: 92a4 523a 74e6 373a 0b7e 0b3a 0375 bc39
000002d0: 7698 9db7 fc7d a8b9 19c6 24ba c748 97ba
000002e0: 5b6b a3ba cf1b a1ba 7971 b039 d183 113a
000002f0: 03a1 373a 291a 243b c6d7 3b3b 81e1 643b
00000300: efd0 73bb 9eff 73bb b23f 74bb 3828 b53b
00000310: 39ed b43b c813 b53b 5e7b 02ba 5f11 0aba
00000320: 53fc 1dba 35ba e4b9 5d29 6ab9 28f6 38b9
00000330: 662a 95ba 0b6f 94ba cdf0 95ba 29fe f638
00000340: 44d4 f4b8 2377 dbb9 6ba4 9a39 4569 1639
00000350: d977 9fb7 a5fd c539 234c c739 4669 133a
00000360: d81a 4b3a 13bb 463a b4ba 3f3a d010 a9b9
00000370: bcbb 52b9 61d1 9db7 bab8 3ab9 cb79 3437
00000380: 5068 3b38 6d3e 97b9 ed5e 78b9 ef4f 21b9
00000390: e0af 6338 c56c 29b8 6232 4e39 5946 24b9
000003a0: bfa9 81b9 2558 9bb9 c9d9 e2b9 930c 10ba
000003b0: 9d68 3cba 986c a3ba 41e3 e6ba dbc4 07bb
000003c0: 5fe4 b93a 5c34 193b 8b3e 593b ca5e 5bba
000003d0: e4ca 1dba 7043 b9b9 25f8 b339 22de b739
000003e0: 7d2c c939 5e41 6fb9 7527 b7b8 2d4d ca38
000003f0: 795e 933a 6e5f 3e3a ea40 a539 f499 c239
5.384334e-05 3.6362784e-05 2.7193639e-05 -0.00025422662 -0.00016226106 -0.00010671682 0.0007899717 0.00084415404
0.00088576076 -0.00041610378 -0.00034192452 -0.0002697939 1.5848904e-05 2.1296717e-05 1.634208e-05 5.1275114e-05
7.425716e-05 7.30496e-05 0.0003068484 0.00028223798 0.00027546834 0.00057217677 0.00035207724 0.00021769917
0.0004500701 0.00020556105 -8.370561e-05 -0.0009941644 -0.0011553222 -0.0012281359 0.005808079 0.006307389
0.007028479 -0.0029560497 -0.0036397828 -0.004483375 -0.001513801 -0.0015051016 -0.0015000144 0.0017523895
0.0017685777 0.0017885516 -0.00032530964 -0.00024651174 -0.00016934199 0.00018144309 0.00019590535 0.00019105655
-0.00036109626 -0.0003611035 -0.00036111567 0.00054508506 0.00048353724 0.00043351256 7.3174175e-05 6.2003106e-05
5.348515e-05 -6.2182403e-06 -5.4589723e-06 -2.753433e-05 0.00021730932 0.00022181733 0.00022226582 3.3657157e-05
8.157432e-06 -8.258068e-06 -0.00021678119 -0.00020517406 -0.0006196469 0.00022257837 3.957578e-05 -0.00012091141
-0.00065625575 -0.00037848903 0.0004963272 0.00024932512 0.00015522105 -0.00016968463 0.000114354974 3.7906735e-05
-3.590173e-05 0.00016325898 0.0005158949 0.0007605114 0.0002748862 0.00023935821 0.00018368737 -0.00028626152
-0.00017573475 -0.00011004745 2.6235368e-05 2.4255974e-05 3.2616215e-05 2.7357826e-05 5.7342033e-05 8.6276385e-05
0.00057527004 0.00055321795 0.00052957435 0.00029446228 -0.00040172177 -0.0009255899 0.0031455504 0.0016857407
0.00023854974 -0.005251307 -0.0058873547 -0.0060366374 -0.0015145725 -0.0014827044 -0.001595919 0.00215561
0.002520149 0.0030570035 -0.0021334912 -0.002131435 -0.002128671 0.0035965566 0.0036093085 0.0036271932
-0.00017215923 0.00016882851 0.0004712617 0.00056647847 0.0006451127 0.00057303114 -0.00017307649 -0.00016902744
-0.00016824243 0.00060307153 0.00059386686 0.00057243847 0.00018459848 0.00010278659 4.0733e-05 -5.720576e-05
-2.7359923e-05 1.5013791e-05 0.00011344645 0.00011861701 0.00012872452 -0.00037214565 -0.000373099 -0.00038461477
-0.00024080243 -0.00026485568 -0.0001832825 0.00011657871 -2.102051e-05 -0.00023184028 -0.00022147145 -4.913735e-05
0.00021492294 0.00012830782 8.966101e-05 -4.2757565e-05 0.00019412414 -7.1479025e-07 -0.00018663758 -0.0005000031
-0.0006504058 -0.0007203187 0.00017150216 0.00072474557 0.001304497 -0.0008630446 -0.00066537765 -0.0004781848
0.00014994614 0.00013948728 0.00014480183 6.5257245e-06 0.000113499635 0.00023992627 0.0013951513 0.0011085179
0.0008035387 0.0007015236 0.0005321211 0.00035945335 -1.8786854e-05 -0.00032137323 -0.00062856224 -0.0011542075
-0.0012467908 -0.0012291613 0.0003365388 0.0005550953 0.00070048886 0.0025040007 0.0028662547 0.003492445
-0.0037203392 -0.0037231217 -0.003726941 0.005528476 0.005521443 0.0055260397 -0.00049774896 -0.0005266871
-0.0006026674 -0.00043626284 -0.00022331388 -0.00017639308 -0.0011380434 -0.0011324597 -0.0011439562 0.00011777535
-0.00011674364 -0.000418597 0.0002949567 0.0001434433 -1.9010085e-05 0.00037763748 0.00038012964 0.0005623292
0.00077478355 0.0007580977 0.0007313893 -0.00032246718 -0.00020097097 -1.8813358e-05 -0.00017807158 1.0757193e-05
4.4681423e-05 -0.00028847475 -0.00023686486 -0.00015383934 5.4284814e-05 -4.039404e-05 0.0001966446 -0.00015666465
-0.00024731268 -0.00029629577 -0.00043268342 -0.0005495038 -0.00071872195 -0.0012468277 -0.0017615334 -0.00207167
0.001418244 0.0023377156 0.003314885 -0.00083683117 -0.0006019308 -0.00035336195 0.00034326423 0.00035069982
0.00038370854 -0.00022817167 -8.7334694e-05 9.646486e-05 0.0011243365 0.0007262145 0.00031519617 0.00037117267

weight f4 [64, 26, 3]
00000000: 5870 3d39 71df ff38 435a bf38 109d 5fba
00000010: deb8 0eba 92bb bbb9 25b6 2d3b 40a0 393b
00000020: 6ec6 423b bfff b6ba 2660 96ba 674e 6dba
00000030: 040c 5f38 a1db 9538 d1fc 6538 2867 3439
00000040: 78a1 8239 a681 8039 0bf3 863a 7940 783a
00000050: 224c 723a 7ca3 fb3a 36d7 9a3a 0e7c 3f3a
00000060: e6ef c53a e0ce 343a 8c40 93b9 d59c 5abb
00000070: f20c 7ebb f007 87bb 86a5 9f3c 005f ad3c
00000080: 1231 c13c 7a81 22bc e217 48bc 0b78 76bc
00000090: 7570 a6bb 997b a5bb 69ec a4bb edab c03b
000000a0: 9373 c23b c6a5 c43b 8811 8fba e1d3 58ba
000000b0: 4ff3 14ba 2798 1f3a aa50 2c3a d90c 283a
000000c0: a1ce 9eba 72cf 9eba d0d0 9eba 51b9 ef3a
000000d0: daa7 d43a bda7 be3a c0b9 8039 ca25 5a39
000000e0: b92d 3c39 d405 afb7 e2a6 99b7 fcbf c1b8
000000f0: 4524 3f3a 5a1b 433a 5880 433a 90d5 ec38
00000100: c39a e537 e86f e8b7 5aad 3eba bc77 34ba
00000110: ff41 08bb b8c6 433a a63d 0b39 0fb4 d4b9
00000120: d44e 10bb d274 a6ba d547 da3a 604d 5b3a
00000130: a587 083a 7540 15ba c856 c2b9 14d7 00b9
00000140: 010d f438 60b9 0aba c02e dbba 1a8e 21bb
00000150: 6693 69ba 1263 4bba 1e15 1cba d93d 733a
00000160: 3353 153a c404 bb39 6257 b2b8 cce2 a4b8
00000170: 7bb7 ddb8 b6f8 b9b8 f4e5 42b9 079f 92b9
00000180: a068 f4ba 270a ebba 95fe e0ba be35 7aba
00000190: d5ac aa3a 649f 443b 4c0d 27bc f10c b3bb
000001a0: 35b3 4aba 0c71 8b3c bd54 9c3c 854b a03c
000001b0: b5de a03b 307c 9d3b 9a82 a93b 25f5 e4bb
000001c0: a9d6 05bc 7559 22bc b79b e23b cf63 e23b
000001d0: a618 e23b f300 3fbc 51ae 3fbc 78a1 40bc
000001e0: 6c49 123a e774 0fba 4538 c8ba 6aac f0ba
000001f0: 7e0a 09bb 1d75 f3ba f510 133a 2ca0 0f3a
00000200: 6af5 0e3a 361c 00bb 494f fcba a734 f3ba
00000210: 4fdb 1cba e3ad aeb9 3f72 0ab9 626f 4239
00000220: 5bfc b938 ad1e 4cb8 85cb c0b9 0095 c9b9
00000230: 55c2 dab9 041c 9e3a b583 9e3a 3668 a33a
00000240: 3b9d 4c3a 7c0d 613a 0bbd 1b3a 3a1e c6b9
00000250: 5ee4 8e38 b7ff 443a 3530 3c3a f702 2739
00000260: b99f 36ba 0b0d dab9 885f 98b9 d853 1139
00000270: fdd8 cf39 22ec c3b5 f1d4 c7b9 6ed6 85ba
00000280: b118 aeba 6fcf c0ba 5ca0 b739 c8fe c13a
00000290: f696 2e3b a503 e7ba a11a b2ba b1fe 7fba
000002a0: e58b a039 2759 9539 db09 9b39 f795 5f37
000002b0: fd0b 7339 a071 003a fab8 3a3b 485c 143b
000002c0: 0916 d73a 83c7 bb3a 4c6f 8e3a ad6e 403a
000002d0: 79eb 20b8 d60b 2cba e03f a8ba b679 1abb
000002e0: d1dd 26bb cb81 24bb 442a 343a 9895 943a
000002f0: 9a80 bb3a 4f90 a73b 1fce bf3b 74b5 e93b
00000300: 89f5 f8bb 3425 f9bb a266 f9bb 77fa 383c
00000310: 39be 383c 98e5 383c f73b 85ba effa 8cba
00000320: 7151 a1ba 558d 69ba d519 efb9 f2dc bcb9
00000330: e44f 18bb 9590 17bb 7a1a 19bb eb33 7c39
00000340: 57fe 79b9 3f18 60ba 7be7 1d3a 7d95 9939
00000350: f9d4 22b8 cb2a 4a3a 5780 4b3a 4b85 963a
00000360: 9b63 cf3a 38ec ca3a 0ac6 c33a c4a1 2cba
00000370: b12d d7b9 9825 21b8 04a9 beb9 5c48 b837
00000380: 4f5c bf38 246f 1aba 209c fdb9 04b7 a4b9
00000390: 617d e838 a9ff acb8 d78b d239 6dbd a7b9
000003a0: ed65 04ba 009f 1eba 7021 6e3a 3836 973a
000003b0: edc6 c53a e08c 2b3b 4c5e 723b 1a85 8e3b
000003c0: a722 43bb 8cd2 a0bb ea0b e4bb 3947 e63a
000003d0: 7ca3 a53a b779 423a 08eb 3cba a402 41ba
000003e0: 4b2d 53ba ec26 fb39 e242 4039 555c 54b9
000003f0: 61b2 1abb bfd6 c7ba 7b78 2dba 1847 4cba
0.00018066296 0.00012200967 9.124402e-05 -0.0008530179 -0.00054444175 -0.0003580717 0.0026506272 0.0028324276
0.0029720324 -0.0013961716 -0.0011472746 -0.00090525154 5.3178534e-05 7.145783e-05 5.483331e-05 0.00017204566
0.00024915836 0.00024510658 0.0010295821 0.00094700564 0.0009242912 0.0019198502 0.0011813405 0.00073045574
0.0015101403 0.0006897282 -0.00028086116 -0.003335764 -0.003876504 -0.0041208193 0.019488107 0.021163464
0.023582969 -0.009918565 -0.012212725 -0.015043269 -0.005079324 -0.0050501344 -0.005033065 0.00587987
0.0059341877 0.006001207 -0.0010915259 -0.00082713185 -0.0005682008 0.0006088041 0.0006573299 0.0006410606
-0.0012116024 -0.0012116267 -0.0012116674 0.0018289482 0.001622434 0.001454584 0.00024552457 0.00020804178
0.0001794611 -2.086434e-05 -1.8316732e-05 -9.238717e-05 0.00072914764 0.00074427354 0.00074577844 0.00011293136
2.7370994e-05 -2.7708666e-05 -0.0007273756 -0.0006884297 -0.002079129 0.0007468271 0.00013279039 -0.00040569945
-0.0022019641 -0.001269961 0.0016653488 0.0008365717 0.0005208201 -0.0005693504 -0.0003706722 -0.00012287154
0.00011637249 -0.0005291905 -0.0016722307 -0.002465135 -0.00089102087 -0.0007758598 -0.00059540744 0.00092789304
0.00056962966 0.0003567097 -8.503978e-05 -7.8623736e-05 -0.00010572277 -8.8678134e-05 -0.00018586946 -0.00027965775
-0.0018646903 -0.0017932103 -0.0017165715 -0.00095447514 0.0013021479 0.003000223 -0.010196041 -0.005464189
-0.00077323924 0.017021678 0.019083375 0.01956726 0.0049093612 0.004806064 0.0051730396 -0.0069872313
-0.008168855 -0.0099090235 0.0069155353 0.006908871 0.006899911 -0.011657941 -0.011699275 -0.011757247
0.0005580399 -0.0005472437 -0.0015275559 -0.001836193 -0.0020910795 -0.0018574331 0.0005610132 0.00054788846
0.00054534397 -0.0019548065 -0.0019249703 -0.001855512 -0.0005983607 -0.00033317422 -0.00013203266 0.00018542775
8.868492e-05 -4.866596e-05 -0.00036772728 -0.0003844872 -0.0004172499 0.0012062793 0.0012093695 0.001246697
0.00078054116 0.0008585078 0.00059409504 -0.00037788023 6.813624e-05 0.0007514911 0.0007178814 0.00015927466
-0.00069665496 -0.00041589918 -0.00029062876 0.00013859512 0.00039643786 -1.4597356e-06 -0.00038114892 -0.0010211
-0.0013282505 -0.0014710258 0.00035023957 0.0014800662 0.0026640273 -0.0017624988 -0.0013588258 -0.000976543
0.00030621808 0.00028485918 0.00029571247 1.3326752e-05 0.00023178752 0.0004899744 0.0028491602 0.0022638012
0.0016409765 0.0014326427 0.0010866909 0.0007340711 -3.8366274e-05 -0.0006563043 -0.0012836419 -0.002357108
-0.0025461803 -0.0025101777 0.0006872753 0.0011336086 0.0014305294 0.0051136385 0.005853429 0.0071322266
-0.0075976294 -0.007603312 -0.0076111117 0.011290184 0.011275821 0.011285208 -0.0010164966 -0.0010755936
-0.0012307597 -0.0008909305 -0.0004560488 -0.0003602277 -0.0023240978 -0.002312695 -0.0023361729 0.00024051934
-0.0002384124 -0.0008548535 0.0006023568 0.00029293812 -3.8822156e-05 0.0007712065 0.00077629596 0.0011483816
0.0015822531 0.0015481776 0.001493634 -0.0006585384 -0.00041042038 -3.8420403e-05 -0.0003636555 2.1968204e-05
9.1247835e-05 -0.0005891195 -0.00048372243 -0.00031416875 0.00011085976 -8.2492195e-05 0.0004015851 -0.00031993855
-0.00050505885 -0.00060509145 0.0009083962 0.0011536544 0.0015089192 0.0026176497 0.0036982475 0.004349363
-0.0029775293 -0.0049079116 -0.006959428 0.0017568833 0.0012637223 0.00074186496 -0.0007206653 -0.0007362759
-0.00080557604 0.0004790345 0.00018335463 -0.00020252292 -0.0023604857 -0.0015246494 -0.0006617379 -0.0007792576

weight f4 [64, 26, 1]
00000000: a817 9c3c 2b27 5939 c682 333d f5a4 26bb
00000010: 8508 4c39 9377 ed39 6dbf 953b 2c1d fe39
00000020: c89d 263b 7aeb 28bd 2652 383e 268f 01be
00000030: 2edf 423c fae2 993d 04e7 f93c 581a da3b
00000040: 01a4 6c3d 68d6 1f3c f3c1 dc3c 3ea5 cd39
00000050: 7368 16bc 3d4f c539 1b67 8dbc 0738 acbc
00000060: 5b6b b0bc 7343 a6bc 3e47 10bb 3c74 22bd
00000070: c7b2 4e3c c156 d63a e884 1bb9 3f88 cbb9
00000080: 9358 81bb 6110 873c d11f c2bc 1610 433e
00000090: 8a4c 193d 3b37 d2bd 717a f23c ebf7 dfbd
000000a0: dd9b e23c 7b50 f5bb 50b2 f4bc 452c 58bb
000000b0: 0f03 edbb aa48 3836 3cdc 363c b1d6 8a3b
000000c0: bb69 fa3b 646b 233c 0e3f 5b3c ea81 cc3b
000000d0: 424f 01bd d9cf 253d fd82 893d 9b64 43bb
000000e0: c573 4f3a cc87 833a a475 6a3c 0190 9f3c
000000f0: a7e4 c0bb 8e5a 8dbd 7220 b13c fe85 083e
00000100: f8c7 67bd 258a 073e 50de 2e3c 526c 763b
00000110: bfde 27bd e1e6 f93c 281e 4ebc bb27 643b
00000120: 2034 8d3b 37ec 4d39 8cd9 663b 7ed6 733b
00000130: 62f8 0b3c 6f23 af3b 9877 883c f60b c43d
00000140: 132f 4cbe 800a 923a 629a cfba ac4b 67b9
00000150: 6892 96bb ec18 dd3c 88f6 d23c 7b53 b3bd
00000160: 0d72 fe3d e742 dabd 5517 503c 8ba8 c03c
00000170: ccad 9e3c 29c9 293b 59ca 4b3d 0940 c93c
00000180: e69a 22bd 0249 96bb 17ad 9cbc ea21 d1bb
00000190: fe3d 5e3c 1bca 9a3c 5951 e83c b9a6 a23c
000001a0: 91a9 473a 2e48 cebc 7440 debc a83c c9bb
000001b0: d1b9 9cb8 dc9b 77ba f76c 0ebb 329b ca3c
000001c0: dcb6 02ba d453 ef3b f2dc 99bb aed4 5cbb
000001d0: e129 00bd ee4d f73c f263 a9bc 03eb 0bbc
000001e0: 0a16 c5bc cc26 143a 0947 efbb a0ea 8abb
000001f0: cf7a 2e3c b685 28bc ba4a 97bc 0580 c9bc
00000200: f339 73bc f677 9bbc 083d 853d b552 e93d
00000210: 0089 fabc 2cc1 323c 2cc3 88ba 3208 393a
00000220: 2b5f 97ba 343d be3c 24fe ffbd 2ec7 febc
00000230: 5628 19bd cd39 c73c 95d1 9e3d b256 17bd
00000240: 92ce b73d 407f eabc d6a9 7c3d eb4c 48bc
00000250: 2389 42bc 6f2d 1ebc f0e0 29ba f102 9abc
00000260: 61a3 0fbc a385 12bc 4559 2f3b fd75 9dbb
00000270: f24c 8cbd 376e 96bc 3d97 823d c04e 43b9
00000280: e0b8 063a 94da de39 b646 353b 2e88 ccbc
00000290: 9ebd 9e3b 1284 be3d 9de5 a93d 46ff e0bc
000002a0: 1cad 29be f396 3d3d 5b8f c73c da1b ea39
000002b0: 64f2 cc3c 9cdc ba3b e91d 7dbd d7e3 a43b
000002c0: 6931 263d 2a86 9c3c 6334 9b3c 2a25 df3c
000002d0: aba0 9b3c 746c 963c 3210 0e3d b78b 023d
000002e0: c899 053c f439 373b 3de8 f3b9 167b 9db9
000002f0: 88b0 1f3c 7486 0e3d 691c 0fbc 63d8 a83c
00000300: 6f3d 443c b56c 8c3c 0666 013e b122 333d
00000310: d72b 173d 57a2 b03b 4b19 263d c4ed 1f3d
00000320: f26e fc3c f9e1 6c3a 2cd4 a23c f9f4 253c
00000330: 5a9b 8c3c a173 7d3c cbc8 173d ae9e b83c
00000340: f5ed 70bd a3f4 d5bd 2e08 25bd 8522 f1ba
00000350: 8316 c03a f477 083b 7c0f 303b 5989 0bbd
00000360: ae71 3dbd ebe4 7f3d a482 193c 4eb2 f13d
00000370: e2ed 86bc 02ff f33d 0d7f b33c a9b2 e5bc
00000380: dd0a b6bc c2b1 84bc 202a 73bd b7ae c43b
00000390: 4197 e63c d4a4 d13a e6b9 12bc 2482 4dbc
000003a0: 4b8d f7bb c556 4cbc 395c eebc 92ab 21bd
000003b0: 5475 1abd 282c 04bb 8b6f b63a 6ebd dc38
000003c0: f0ed a03c 5e90 7d3c 6861 e83b f528 273e
000003d0: 8cc2 19bd f1e1 833c 5ea7 9f3d e8dd e33d
000003e0: 20fe 93bd be96 793b 49dc 9abc 1c15 4f3c
000003f0: 6040 853d 5df2 c13b d251 61bc c1b7 453c
0.019054249 0.00020709324 0.043825887 -0.0025427912 0.0001945813 0.00045293252 0.004569939 0.0004846839
0.0025423635 -0.041240193 0.18000087 -0.12652263 0.0118940305 0.075139955 0.030505665 0.0066559725
0.057773594 0.009755708 0.026947951 0.00039223762 -0.009180176 0.00037633805 -0.017261079 -0.02102281
-0.021535566 -0.020295834 -0.002201512 -0.03966163 0.012615866 0.0016352759 -0.00014831463 -0.00038820688
-0.0039473264 0.016487302 -0.023696812 0.19049105 0.03742651 -0.102644406 0.0295994 -0.109359585
0.027662212 -0.0074864007 -0.029870182 -0.003298537 -0.0072330306 2.7460433e-06 0.011160906 0.004237019
0.0076419986 0.009974334 0.013381733 0.006241073 -0.031569727 0.040481422 0.06714437 -0.0029814604
0.00079136743 0.0010034977 0.014310274 0.019477846 -0.0058866325 -0.069020376 0.021621916 0.13332364
-0.05658719 0.13236292 0.010673121 0.0037601185 -0.04098391 0.0305056 -0.012580432 0.003481372
0.0043091923 0.0001963832 0.0035224883 0.0037206705 0.008543106 0.0053448 0.01665859 0.09572594
-0.19939832 0.0011142045 -0.0015838856 -0.00022058067 -0.0045950897 0.026989423 0.02575232 -0.08756157
0.12424097 -0.10657292 0.012700875 0.023517868 0.019369982 0.0025907254 0.04975352 0.024566667
-0.039698504 -0.00458634 -0.019125504 -0.0063822167 0.013564585 0.0188952 0.028359102 0.01985489
0.0007616515 -0.025180902 -0.027130343 -0.006141264 -7.473271e-05 -0.0009445527 -0.0021732429 0.024732206
-0.00049863546 0.0073036943 -0.004695528 -0.0033696103 -0.03128994 0.030188527 -0.02067754 -0.008539918
-0.02405836 0.0005651533 -0.007302169 -0.0042393953 0.010649397 -0.010285785 -0.01846825 -0.024597177
-0.014845359 -0.0189781 0.065057814 0.11392728 -0.030582905 0.010910314 -0.0010434142 0.0007058411
-0.0011548748 0.023222543 -0.12499645 -0.031100836 -0.037391983 0.024319554 0.07754818 -0.036947913
0.08974947 -0.02862513 0.061685406 -0.01222537 -0.011873516 -0.009654387 -0.00064803567 -0.01880023
-0.00876698 -0.008942994 0.002675609 -0.004805325 -0.06850614 -0.018363101 0.06376503 -0.00018625986
0.0005139243 0.00042505993 0.0027660555 -0.02496728 0.0048443815 0.09302534 0.082957484 -0.027465474
-0.16569942 0.046286535 0.02436035 0.0004465271 0.025017925 0.005702568 -0.061796103 0.0050320434
0.040574465 0.019106943 0.018945878 0.0272394 0.01899751 0.018362261 0.034683414 0.031871524
0.00815434 0.0027958127 -0.00046521603 -0.0003003708 0.009746678 0.034796193 -0.008734801 0.020610994
0.011977538 0.01714168 0.12636575 0.043734256 0.036907043 0.005390446 0.040551465 0.03904511
0.030814622 0.0009036358 0.019876562 0.010129207 0.017163921 0.015469463 0.037056725 0.022536602
-0.058820684 -0.104470514 -0.040291004 -0.0018397128 0.0014655147 0.002082345 0.0026864698 -0.03406653
-0.04625099 0.062474173 0.009369526 0.11801587 -0.016470853 0.11913873 0.021911168 -0.028039293
-0.022221977 -0.016198043 -0.059366345 0.006002273 0.028148295 0.0015994557 -0.008955454 -0.012543235
-0.007554685 -0.012471859 -0.02909671 -0.039470263 -0.03770955 -0.002016792 0.001391874 0.000105257015
0.019644707 0.015476314 0.00709169 0.16324218 -0.03753905 0.016098948 0.07795595 0.1112631
-0.07226205 0.0038084234 -0.018903868 0.01263931 0.06506419 0.0059187845 -0.013752418 0.012067736

bias f4 [64]
00000000: d162 a0bd af69 4c3d 70b0 75bd 1f0e 533d
00000010: cf60 0bbe 2287 79bc 7310 1a3e 4a5e 173e
00000020: 87e7 e33d 3009 40bd e036 edbd a90a 233d
00000030: ee75 09be b88f e93b 7da3 8cbc 1450 4c3d
00000040: 1caf 2abe f966 d53d 396f e8bd 19e8 4a3e
00000050: e2a9 233e b094 00be ec96 283e 7ae5 2abd
00000060: eeff 44bd 2518 8d3d a2d4 b5bd 52bf 103e
00000070: 35c8 14be 4155 9f3d 923f 61be 224c 1a3e
00000080: 18df 263e 8d1b 29be c463 fd3d 7e38 5c3e
00000090: 00f5 433e 2d11 973d 5def c33d 0427 7c3d
000000a0: c91c cc3d 0629 0cbe e3ad 1bbe e1ce 493e
000000b0: b0e2 993c 7dd1 65bd c674 343e 7a88 8fbd
000000c0: db8f 083d 91f5 743c cfac 15be 2b5f 6f3d
000000d0: fc7a e53b 9871 a73c 54c3 473d 56b4 9abd
000000e0: 0c40 663d 1c6b e2bd 2bdf 053e d8f3 573d
000000f0: a8fa 5cbd 0e43 82bd aa92 ac3d b70f 86bd
-0.07831348 0.049905475 -0.059982717 0.05152714 -0.13611148 -0.015229972 0.15045337 0.14782062
0.11128145 -0.046883762 -0.11582732 0.03980509 -0.13423893 0.0071277283 -0.017167801 0.049881056
-0.16668361 0.10420031 -0.11349339 0.198151 0.15982774 -0.1255672 0.16463822 -0.041722752
-0.048095636 0.06889371 -0.08878447 0.14135483 -0.14529498 0.07779933 -0.21996906 0.15068105
0.16296041 -0.16514416 0.123725444 0.21505925 0.19136429 0.07376323 0.09567139 0.061560646
0.09966428 -0.13687524 -0.15203051 0.19707824 0.01878485 -0.056107987 0.1762267 -0.07008453
0.033340316 0.014951126 -0.14616702 0.05844037 0.0070031863 0.020439908 0.048770264 -0.075539276
0.056213424 -0.11055586 0.13073413 0.052722782 -0.053949982 -0.06360446 0.084264114 -0.06545966

bias f4 [64]
00000000: 8dac 6bba 5147 c63a 4a69 91ba cf0c abb9
00000010: b36f b8bc 5ed4 9aba c013 653b 5f68 dbbb
00000020: 3fe6 2a39 9148 fc3a baf5 ae3b c33a 27bc
00000030: 2b3a a6ba f63a 153b 0103 8fba 83d6 803b
00000040: 32ab efbc e586 b33a 8f33 fdba e6a1 25bc
00000050: 4073 99bd c141 ed3b c843 c13b cc0d c23b
00000060: d3d1 9a39 e7cc 7eb9 7fa1 043a 9d15 ecbb
00000070: 0f13 58bb 7a95 ce3a af5a 3abd 3cf4 ba3c
00000080: 9e20 abb9 59fb 74ba 1e18 7d3a 3525 023d
00000090: 31c7 f4bb a674 353b 3c3c f338 c2a8 0b39
000000a0: 0fd8 493c 102f 40ba 801e 19ba 44e8 2939
000000b0: 5736 24bb fa5a c4ba afce 813b b562 983a
000000c0: 1463 173b c13e 11bb 6d92 b4bc 50b0 8dbd
000000d0: 006f 013b ab63 48bb 9cd6 8dbd 5de9 09b8
000000e0: 3c21 baba 5cce a33b 3b71 c9ba f9f6 d03a
000000f0: ff69 e3bc 8120 a93a 0173 13bd 4a6f 4c3b
-0.00089902506 0.0015127455 -0.0011094001 -0.00032625205 -0.0225142 -0.0011812558 0.00349544 -0.0066957916
0.00016298237 0.0019247701 0.0053393515 -0.010206881 -0.001268213 0.002277074 -0.0010910929 0.003931822
-0.029256437 0.0013696818 -0.0019317734 -0.0101094 -0.07492685 0.0072405045 0.0058979727 0.005922055
0.000295295 -0.0002429966 0.0005059465 -0.007204725 -0.0032970344 0.00157611 -0.04549664 0.022821538
-0.00032639963 -0.0009345315 0.0009654778 0.031773765 -0.0074700345 0.0027687936 0.000115983625 0.0001331894
0.012319579 -0.00073312316 -0.00058410317 0.00016203622 -0.0025056803 -0.0014980726 0.003961406 0.0011626097
0.0023099827 -0.0022162648 -0.022042478 -0.069183946 0.001975 -0.0030576985 -0.06925699 -3.2880682e-05
-0.0014200578 0.004998965 -0.0015368828 0.0015942744 -0.027760504 0.0012903364 -0.03599835 0.0031194263

weight_g f4 [64, 1, 1]
00000000: 22cb 22bd 28e7 183d 7068 aabc c3cf a9bc
00000010: eec4 3f3e b7a8 8dbc c76f a7bc aea6 dd3b
00000020: dc20 693c 5aa5 873c 2329 2d3c 78ee 693c
00000030: 53cb f3bc 3f60 1e3c 28ba c03c da6a 2d3d
00000040: ccf2 663d a184 09bd 2d29 403d 5048 b2bb
00000050: f208 d93e c19e 8b3b f19b 1e3d c000 02bc
00000060: e75f ba3c 07e9 c0bb bdef e73c 51ce b63b
00000070: eadc 74bc 1c70 4cbc 55b6 9c3d 7cb9 4d3d
00000080: 961e 353c 33a6 74bc cc3d 113d 354f 643d
00000090: 95ca b6bb 54b3 1b3d 4df6 e43c fcbf cabc
000000a0: 7e1a ad3d 53dd f33c b8cf 093c af9d 8d3c
000000b0: 08a5 cc3c a8bd 163d fd49 aebc e53f 56bc
000000c0: ba55 5bbc f298 bebc 8a2d 413e ff73 c23e
000000d0: 4084 c2bc 1a27 6b3c b256 bf3e 7097 873c
000000e0: 1605 b03c 02e8 a63b a559 c93b 24a9 babc
000000f0: bddd 7e3e 19b8 713c 50c7 973e 7be0 093c
-0.039744504 0.037329823 -0.020801753 -0.020728951 0.18727466 -0.017292364 -0.020439042 0.0067642545
0.014229026 0.016558338 0.01056889 0.014278047 -0.029760038 0.009666502 0.023526266 0.04233823
0.056383893 -0.03357375 0.04691427 -0.005440749 0.42389637 0.0042608683 0.038722936 -0.007934749
0.022750808 -0.005887154 0.028312558 0.005578794 -0.014945248 -0.012477901 0.076519646 0.05022572
0.011054656 -0.014932203 0.035459325 0.0557396 -0.005578349 0.038012818 0.027949477 -0.024749748
0.084523186 0.029768622 0.00841134 0.017287103 0.024981037 0.036801964 -0.021275515 -0.013076757
-0.013387138 -0.02326629 0.18865028 0.37979123 -0.023744702 0.014352584 0.3737083 0.016551703
0.0214868 0.0050935755 0.0061447197 -0.02278573 0.24889274 0.014753365 0.2964425 0.008415337

weight_v f4 [64, 64, 3]
00000000: 75d1 cdba 9081 e2ba 94cf 00bb 3867 dab8
00000010: 9c65 05b9 5881 90b9 9ae4 95b9 9011 6bb9
00000020: f034 dfb8 762c 54ba 5c5d 78ba 8bdf 9bba
00000030: 6f3a 08b9 933e e3b8 4fbf e3b8 7fab 383a
00000040: 420f 303a 273e 283a 2838 61ba 90ab 64ba
00000050: c58a 7eba d8fc 2839 29af 2c39 57fa 1c39
00000060: 8cfd 7b38 2066 2639 f559 8f39 cc45 4439
00000070: 278d 9539 074b cb39 73ec 2738 d8f2 4138
00000080: f765 7238 ea85 9239 f7a0 9039 c624 9c39
00000090: 62d9 0d3a 0a7b 253a bb0d 413a c1b2 1f39
000000a0: 331f 0a39 907d 8038 676d f439 82fd 033a
000000b0: 3bf9 053a ee71 3338 86ae 05b8 7abd 3fb9
000000c0: ace5 2339 06dc 2539 964f f938 2d3e fab9
000000d0: 5972 0fba 912e 3aba 1352 5fba dfcb 74ba
000000e0: 19ae 89ba 7b10 9938 3b14 a938 5c66 a238
000000f0: 99e6 583a 293f 5d3a 60f9 6d3a 4859 e5b8
00000100: 058c d7b8 e2f7 fab8 1466 3739 32e5 9138
00000110: 045a e7b7 5101 d4b9 374c c7b9 079b 0bba
00000120: 64bb 873a 4582 913a b150 ab3a 28be ddb9
00000130: f664 cdb9 2b74 c7b9 415a 4bba bfc2 5eba
00000140: 4a4a 8cba ac2c b7b8 7cc2 91b8 d90a 88b8
00000150: 19b0 c1b6 4d38 4336 3509 ef37 2cb5 9cb9
00000160: 89bc b0b9 87a7 dab9 6658 d1b9 b155 d8b9
00000170: 3f3f e1b9 9da5 8c39 50c5 5739 8f13 3839
00000180: 3ea9 c538 1796 e338 e2b1 d038 18d0 62b9
00000190: 93d4 59b9 4c33 49b9 4619 9939 4535 5539
000001a0: 84fe 0239 a736 85b8 fe61 4ab8 f6b9 18b8
000001b0: d552 c537 9a6d 2038 8568 2038 3800 f739
000001c0: 343a df39 87ff eb39 7671 08b9 cfa1 d837
000001d0: e416 8c39 a8bc 83b8 78d0 40b9 336d c0b9
000001e0: 4f37 15b9 8d58 0db9 014c 2ab9 f211 17b9
000001f0: 8543 85b8 bdc2 9936 04a3 063a df84 1f3a
00000200: b89f 433a 22ee f239 b23d fa39 cb8a 073a
00000210: 31ea 2eba b115 4aba 3f93 6dba 9fc1 893a
00000220: fe2c a43a 058f cb3a 500e d539 d91f d039
00000230: ea0a f839 2dc3 7539 49dd 6139 603c 5539
00000240: 2895 21ba a066 2eba 5930 59ba 4ac9 34b8
00000250: 751c 8738 39e7 1039 2527 9eb8 e3aa 9db8
00000260: 373a b2b8 1470 80ba e209 79ba df8f 85ba
00000270: 1988 5739 387e d938 6901 0b38 61da 98ba
00000280: 230e a0ba a347 b1ba b2be 1239 77fe 5839
00000290: 773d 9b39 bcc3 29ba ec78 38ba fd35 51ba
000002a0: 39ff 3aba fdff 2aba d4d1 15ba 54b7 0039
000002b0: a477 1039 9c88 2d39 a88f feb9 63ce d2b9
000002c0: 748c 8bb9 15d3 25ba 048c 30ba 83e7 51ba
000002d0: b204 d4b8 c547 bcb8 78dc 0fb9 4bba da38
000002e0: 792b b838 6af3 7c38 a859 103a 0b0f 263a
000002f0: fe6e 3e3a 5047 0439 04d8 2139 b9c8 5639
00000300: a3aa 2c39 f030 a038 1cc8 1039 d028 be3a
00000310: 864b f73a 872f fc3a 3039 84ba bf82 a1ba
00000320: d6c7 b2ba e834 fb38 7316 78b8 542c 2ab8
00000330: 5c4a 3db9 8267 00b9 e093 84b8 52c0 5e3a
00000340: 67a9 e539 a667 5bb8 327a 83b7 c8e2 1d39
00000350: 3d72 6239 8429 6939 daea 6539 9940 3239
00000360: 0705 19b9 51a7 1fb9 1865 a9b9 8505 2e38
00000370: 5881 fd39 7197 323a 3792 1338 f10a 7338
00000380: 1977 9438 f217 3638 4e65 a0b8 33e1 d8b8
00000390: e9e8 283a 8cbc 4d3a 7777 5c3a 5ab8 2b3a
000003a0: 6a05 213a 68ab fa39 f33e 983a 8ffb a93a
000003b0: 212b a23a 6153 a83a 536d 413a c865 18b8
000003c0: 3fdd 3d3a 641d 323a 4655 103a 9a99 033a
000003d0: 1a54 523a aeac 763a a9fa 3eba b212 41ba
000003e0: c449 26ba 03b3 8238 40a8 c638 681f b538
000003f0: 93b9 c5b9 c822 95b9 6d3c 4cb9 0768 0139
-0.0015702682 -0.0017281044 -0.0019654976 -0.00010414276 -0.00012721721 -0.0002756219 -0.00028589816 -0.00022417889
-0.00010643329 -0.00080937834 -0.0009474361 -0.0011892183 -0.00012991739 -0.00010835859 -0.000108598375 0.0007044598
0.0006716141 0.0006417953 -0.0008591437 -0.00087230746 -0.00097100093 0.0001611592 0.0001646845 0.00014970578
6.0079197e-05 0.00015869038 0.0002734211 0.00018718018 0.0002852466 0.00038775077 4.0036113e-05 4.624095e-05
5.779226e-05 0.00027947064 0.00027585748 0.00029782037 0.00054111157 0.0006312585 0.0007364412 0.00015230013
0.00013172328 6.1269035e-05 0.00046620818 0.0005035029 0.00051106856 4.278303e-05 -3.187221e-05 -0.00018285765
0.00015630451 0.00015817591 0.00011888069 -0.0004773004 -0.0005472056 -0.0007102276 -0.0008519005 -0.00093382405
-0.0010504156 7.298678e-05 8.062316e-05 7.743828e-05 0.0008274108 0.00084398926 0.0009077992 -0.00010936201
-0.000102780796 -0.00011967101 0.00017490267 6.95683e-05 -2.7579263e-05 -0.00040436772 -0.00038013022 -0.000532553
0.0010355529 0.0011101445 0.0013070313 -0.00042294082 -0.0003917587 -0.0003804279 -0.00077572843 -0.00084976474
-0.0010703292 -8.734441e-05 -6.950364e-05 -6.487006e-05 -5.7723487e-06 2.9090036e-06 2.8495308e-05 -0.00029889622
-0.00033709806 -0.00041705018 -0.00039929448 -0.00041262576 -0.00042962466 0.00026826272 0.00020577502 0.00017554894
9.425216e-05 0.0001085216 9.951346e-05 -0.0002163056 -0.00020773923 -0.00019187963 0.00029201264 0.00020333107
0.0001249258 -6.352114e-05 -4.8251815e-05 -3.6412814e-05 2.3522802e-05 3.8249047e-05 3.8244314e-05 0.00047111674
0.0004257724 0.00045013076 -0.00013012238 2.5824555e-05 0.00026719936 -6.281707e-05 -0.00018388208 -0.00036702454
-0.00014230351 -0.00013479796 -0.00016240777 -0.00014407167 -6.354511e-05 4.582426e-06 0.00051359856 0.0006085168
0.00074624596 0.0004633526 0.00047729682 0.0005170523 -0.00066724705 -0.0007708921 -0.0009062774 0.0010509974
0.0012525616 0.0015530294 0.0004063719 0.0003969658 0.00047310378 0.0002343773 0.00021540107 0.00020335754
-0.00061638886 -0.00066528656 -0.00082850974 -4.310281e-05 6.442602e-05 0.00013819047 -7.541318e-05 -7.5181735e-05
-8.498545e-05 -0.0009799027 -0.0009500069 -0.0010189972 0.00020554698 0.000103708764 3.3141496e-05 -0.0011661762
-0.0012211244 -0.0013525378 0.00013994685 0.00020694161 0.000296097 -0.0006476005 -0.0007037062 -0.0007980762
-0.0007133368 -0.00065231306 -0.0005715166 0.00012275326 0.0001377748 0.00016549457 -0.00048553688 -0.0004020809
-0.00026616792 -0.0006325704 -0.0006734731 -0.0008007215 -0.00010109822 -8.977907e-05 -0.00013719674 0.0001042975
8.781901e-05 6.030818e-05 0.0005506524 0.0006334639 0.0007264464 0.00012615067 0.00015434629 0.00020483405
0.00016466765 7.63851e-05 0.00013807457 0.0014508013 0.0018867112 0.0019240238 -0.0010087844 -0.001232229
-0.0013639878 0.00011978467 -5.9148715e-05 -4.0572442e-05 -0.00018052146 -0.00012245591 -6.321794e-05 0.0008497286
0.00043804498 -5.23102e-05 -1.5673319e-05 0.0001505717 0.00021595597 0.00022236077 0.00021926631 0.00016999467
-0.0001459309 -0.00015225752 -0.00032309513 4.1489973e-05 0.0004835229 0.00068127277 3.5183704e-05 5.7945905e-05
7.0793736e-05 4.3414482e-05 -7.648264e-05 -0.00010341629 0.0006443398 0.0007848225 0.00084101356 0.0006550603
0.00061424694 0.00047811423 0.001161544 0.0012968647 0.0012372473 0.0012842232 0.00073786563 -3.6334415e-05
0.0007242746 0.00067945407 0.0005505871 0.0005020142 0.00080233964 0.00094098866 -0.0007285276 -0.00073651515
-0.00063433894 6.2322266e-05 9.472715e-05 8.6366024e-05 -0.00037713032 -0.0002844541 -0.00019477466 0.00012341152

weight f4 [64, 64, 3]
00000000: 99cf 033c 5b0f 113c b7fc 243c e5de 0b3a
00000010: 78dc 2a3a dd16 b93a 7bfd bf3a 2a8b 963a
00000020: 6ff2 0e3a 93e1 873b 090f 9f3b 63a6 c73b
00000030: db7c 2e3a 6788 113a d9da 113a bd88 6cbb
00000040: 7181 61bb 557e 57bb 653c 903b 2772 923b
00000050: d003 a33b 9472 58ba ab2e 5dba 9b10 49ba
00000060: 7961 a1b9 bd21 55ba 849c b7ba 3e65 7bba
00000070: 798d bfba 9d31 02bb ae15 57b9 336b 78b9
00000080: db3c 9bb9 82ac bbba 5d3f b9ba 0fff c7ba
00000090: efaf 35bb a1f4 53bb bd45 77bb 9b8c 4cba
000000a0: c5e9 30ba aa93 a4b9 8489 1cbb 3c0f 29bb
000000b0: 8d99 2bbb 85d7 65b9 dc39 2b39 0d97 753a
000000c0: 69ed 51ba da70 54ba 2aaa 1fba f742 203b
000000d0: c2bb 373b 8478 6e3b 1905 8f3b 04c6 9c3b
000000e0: e758 b03b 600d c4b9 8990 d8b9 7302 d0b9
000000f0: 92e8 8abb 16b1 8dbb 8567 98bb 67e1 123a
00000100: 9e0a 0a3a e5b9 203a eee7 6aba a8de bab9
00000110: c629 1439 f1c5 073b 2745 ff3a 46d0 323b
00000120: 23da adbb f25f babb c46d dbbb 6b02 0e3b
00000130: 1e8a 033b 5578 ff3a 5d3b 823b 4ea9 8e3b
00000140: c2b0 b33b 669e ea39 31b2 ba39 e93f ae39
00000150: b515 f837 100c 7ab7 9c15 19b9 03b8 c83a
00000160: 625f e23a 1408 0c3b dd11 063b c68b 0a3b
00000170: ef40 103b bb25 b4ba 4f2f 8aba 21c6 6bba
00000180: 832c fdb9 73c0 11ba 3aa7 05ba a541 913a
00000190: fb80 8b3a 84da 803a a318 c4ba 298b 88ba
000001a0: a1c8 27ba 53a0 aa39 5e9c 8139 8f9e 4339
000001b0: d6bd fcb8 ee7b 4db9 6c75 4db9 702f 1ebb
000001c0: cff5 0ebb 9023 17bb 58c3 2e3a 85bc 0ab9
000001d0: ec6e b3ba 2bbc a839 46f7 763a 2078 f63a
000001e0: 851f 3f3a eb0a 353a de1f 5a3a 757f 413a
000001f0: ceb0 aa39 b2f1 c4b7 0473 2cbb d651 4cbb
00000200: 8690 7abb 1094 1bbb a842 20bb e49b 2dbb
00000210: 120a 603b 816b 813b 1d26 983b e971 b0bb
00000220: c348 d2bb 285d 02bc 3672 08bb b349 05bb
00000230: 3dda 1ebb 6664 9dba 26a6 90ba b78f 88ba
00000240: 7df6 4e3b 8e61 5f3b cf17 8b3b 4f8f 6739
00000250: 910e adb9 5a99 39ba e491 ca39 bcf2 c939
00000260: 4248 e439 6482 a43b 877d 9f3b 9a12 ab3b
00000270: 1b08 8aba ad49 0bba 830b 32b9 15c8 c33b
00000280: a701 cd3b 8e11 e33b 3df5 3bba dcf7 8aba
00000290: c9d6 c6ba 5371 593b f547 6c3b d5fb 853b
000002a0: c783 6f3b 6706 5b3b 70e5 3f3b a7dd 24ba
000002b0: 6f0a 39ba 2f45 5eba f106 233b 6001 073b
000002c0: 9bbd b23a 6565 543b 3d21 623b 856d 863b
000002d0: 1cc8 073a 9828 f139 af43 383a 1914 0cba
000002e0: c3e4 ebb9 effe a1b9 07e4 38bb 33b2 54bb
000002f0: a0ea 73bb c46d 29ba 214c 4fba 8c8d 89ba
00000300: 4fde 4b3a 7d23 bd39 d0f1 2a3a b885 e03b
00000310: c7fd 113c e7e0 143c ef1d 9cbb 58b2 bebb
00000320: 5a16 d3bb f34c 143a 9475 92b9 a8ec 48b9
00000330: 117f 5fba 949b 17ba 0289 9cb9 7980 833b
00000340: db94 073b bc86 81b9 6d3c 9bb8 b06a 3a3a
00000350: e6ae 853a e1a5 893a 7ebb 873a ac76 523a
00000360: d2ab 34ba 0081 3cba 6b01 c8ba e077 4d39
00000370: 56a8 153b 35dd 523b f53c 2e39 227b 8f39
00000380: 334b af39 b7ff 5639 5361 bdb9 1a09 00ba
00000390: cb6e 473b 0fea 723b 3427 823b 3ec0 4a3b
000003a0: 5d1e 3e3b c7fb 133b f3c1 b33b 13b3 c83b
000003b0: 2879 bf3b 3ebe c63b 6461 643b cdef 33b9
000003c0: 7f2c 603b 1a4d 523b 396a 2a3b 8261 1b3b
000003d0: 0b56 783b 02a0 913b 7d7d 61bb 62f6 63bb
000003e0: 5f56 44bb 3f51 9a39 458e ea39 44da d539
000003f0: 7774 e9ba e915 b0ba 8624 71ba 74ca 183a
0.008045101 0.008853759 0.010070018 0.0005335643 0.0006517838 0.0014121194 0.0014647687 0.0011485566
0.00054529955 0.0041467636 0.0048540873 0.006092833 0.0006656178 0.00055516366 0.0005563922 -0.0036092245
-0.0034409428 -0.0032881696 0.004401731 0.0044691744 0.0049748197 -0.00082568196 -0.0008437435 -0.0007670016
-0.00030780936 -0.00081303326 -0.0014008437 -0.00095899764 -0.0014614306 -0.0019865998 -0.00020512074 -0.00023691058
-0.00029609245 -0.0014318379 -0.0014133264 -0.0015258509 -0.0027723273 -0.0032341855 -0.0037730776 -0.0007802934
-0.00067487016 -0.00031390536 -0.0023885677 -0.0025796434 -0.0026184053 -0.00021919429 0.00016329385 0.00093685166
-0.0008008094 -0.00081039744 -0.0006090725 0.0024453977 0.0028035496 0.003638775 0.0043646214 0.0047843475
0.0053816917 -0.00037393998 -0.00041306418 -0.00039674676 -0.0042391503 -0.004324089 -0.0046510124 0.00056030456
0.00052658643 0.0006131216 -0.0008960952 -0.00035642576 0.00014129942 0.0020717348 0.0019475565 0.0027284785
-0.005305545 -0.005687707 -0.0066964347 0.0021668922 0.0020071338 0.0019490818 0.003974362 0.004353679
0.0054837177 0.00044749974 0.00035609448 0.00033235483 2.9574012e-05 -1.490397e-05 -0.00014599267 0.0015313629
0.0017270858 0.002136712 0.0020457425 0.002114044 0.002201136 -0.0013744155 -0.0010542664 -0.0008994062
-0.00048289084 -0.0005559988 -0.0005098466 0.0011082186 0.0010643298 0.0009830748 -0.0014960956 -0.001041745
-0.00064004405 0.00032544378 0.000247213 0.00018655717 -0.00012051656 -0.00019596491 -0.00019594067 -0.0024137162
-0.0021813994 -0.0023061968 0.0006666682 -0.00013230935 -0.0013689674 0.00032183653 0.0009421002 0.0018804111
0.00072907686 0.0006906229 0.00083207886 0.00073813583 0.00032556657 -2.3477569e-05 -0.0026313672 -0.0031176708
-0.0038233115 -0.0023739375 -0.0024453793 -0.0026490623 0.003418569 0.003949583 0.0046432153 -0.005384673
-0.0064173653 -0.0079567805 -0.0020820028 -0.0020338118 -0.0024238967 -0.001200807 -0.0011035844 -0.0010418807
0.0031580024 0.0034085247 0.0042447816 0.00022083263 -0.00033007984 -0.0007080041 0.0003863714 0.0003851856
0.00043541385 0.0050204266 0.004867259 0.0052207233 -0.001053098 -0.0005313408 -0.00016979691 0.0059747794
0.0062563005 0.006929583 -0.0007170027 -0.0010602432 -0.0015170212 0.0033179119 0.0036053632 0.0040888586
0.0036547051 0.0033420564 0.0029281043 -0.0006289132 -0.00070587447 -0.0008478937 0.0024875964 0.0020600185
0.0013636829 0.0032409069 0.0034504675 0.004102411 0.000517966 0.00045997347 0.00070291286 -0.0005343571
-0.00044993134 -0.00030898253 -0.0028212087 -0.0032454848 -0.0037218705 -0.0006463195 -0.00079077674 -0.0010494455
0.0007776962 0.0003607533 0.0006521018 0.006851878 0.008910603 0.009086824 -0.0047643105 -0.0058196
-0.0064418735 0.0005657218 -0.00027934893 -0.00019161648 -0.0008525709 -0.0005783376 -0.00029856717 0.004013118
0.002068809 -0.00024705182 -7.402231e-05 0.00071112346 0.0010199219 0.0010501706 0.001035556 0.0008028548
-0.00068920583 -0.00071908534 -0.0015259212 0.0001959498 0.0022835932 0.0032175307 0.00016616641 0.00027366827
0.0003343463 0.00020503892 -0.000361214 -0.0004884169 0.0030431028 0.003706578 0.0039719585 0.003093734
0.0029009797 0.002258049 0.005485767 0.006124863 0.0058433004 0.006065159 0.0034848088 -0.00017160103
0.003420621 0.0032089413 0.0026003255 0.0023709242 0.0037893082 0.0044441232 -0.0034407072 -0.0034784307
-0.0029958708 0.00029433702 0.00044737957 0.00040789146 -0.0017811198 -0.0013434264 -0.0009198863 0.0005828508

bias f4 [64]
00000000: 2d7a 0bbb 1bb4 1f3a f645 eaba 4fd8 e7ba
00000010: 6347 d3bc 3fbe 67ba 288f 93bd c17b 99bc
00000020: dc77 f4ba fe37 1a3a 21a0 873c 0140 f039
00000030: 91db 9cba 5300 e33a 5712 65ba 65fa 153b
00000040: d025 e1bc 0603 ae39 e97a a2bb aefa 95bc
00000050: 69e8 b63b bc63 9a3c 0603 963b 553a 9b3b
00000060: 64db 6e38 67a9 f83a a2d4 ac36 53ef 933b
00000070: 9f03 23bc 9b94 f339 5124 52bd 5aaa 853b
00000080: fa1f 80bc 9829 503c b729 d939 f1d0 a43c
00000090: 44e9 4dbc 2425 2e3b b728 843a 0911 09b8
000000a0: 6c4c 24bc f158 c4ba ebb0 92ba 9ccc a43a
000000b0: cdcd 3cbb 9c93 27ba a37d f43c edba 643c
000000c0: 591b 7abd bb0d 12bb 2099 dabc 8337 d83a
000000d0: 4038 df3a 9d5c 7abb b8fc 123b 66ab 08bb
000000e0: 595e 05bb b64b a23b 72e9 093c e982 b53a
000000f0: e55b d7bc 5fad d0bc 3ff9 f0bc 2ef8 123b
-0.002128254 0.00060922065 -0.0017873633 -0.0017688366 -0.025790876 -0.00088402996 -0.07205039 -0.018735768
-0.0018651444 0.0005882977 0.016555848 0.00045824054 -0.0011967291 0.0017318822 -0.00087383896 0.0022884842
-0.02748385 0.0003319012 -0.0049584997 -0.01830801 0.0055819047 0.018846385 0.004577997 0.0047371783
5.6947945e-05 0.0018971384 5.150753e-06 0.0045146137 -0.009949594 0.00046459291 -0.051304165 0.0040791454
-0.015640248 0.012705229 0.00041420545 0.020119162 -0.012567822 0.002657243 0.0010082935 -3.267921e-05
-0.010027986 -0.001498012 -0.0011191642 0.0012573185 -0.002880919 -0.000639254 0.029845065 0.013960582
-0.061061237 -0.0022286016 -0.026684344 0.0016496036 0.0017030314 -0.0038202174 0.0022428464 -0.0020854115
-0.0020350425 0.004952873 0.008417474 0.0013848218 -0.026288936 -0.025473295 -0.029415725 0.0022425759

weight_g f4 [64, 1, 1]
00000000: b56f 1b3d 051c 193d 2a5f a9bc b186 be3c
00000010: 1ba0 5c3e 4032 9abc a850 c73e bf1d 7fbc
00000020: d16d 813c ebb6 983c 4d35 923c eada ffbb
00000030: 796b f23c 0e56 3e3c 129b c83c 1a4c 27bd
00000040: 910c 7c3e 01df 16bd 7372 2c3d 8221 6fbc
00000050: e2aa 0c3d 699f 7cbc 48df 153d e45b 123c
00000060: c139 b7bc 7ad6 0f3d 6e4e cebc 043f 053d
00000070: b34b 1f3d 2ce6 583c 27f1 bc3d a2ca 203d
00000080: bbdc 9dbc 2f3a a9bc 983b 173d 5d67 8b3d
00000090: 86b5 9dbc 9070 223d a1f8 e1bc 70c6 c3bc
000000a0: 85aa be3d 32e8 e4bc 4ca8 573c bdce 5d3c
000000b0: 68bd d0bc 74bb 163d b7e1 3b3d c2f1 a33c
000000c0: 9d38 bb3e dcd0 bebc 8a78 5a3e 312d f03c
000000d0: d740 bdbc 18d3 763c 0704 da3c 0132 8fbc
000000e0: e7c7 b93c 24a2 b63b 5a9a e83c d738 b63c
000000f0: 1e00 7f3e 638d 5b3e b772 923e 3cc2 123c
0.03794833 0.037380237 -0.02067526 0.023257585 0.2154545 -0.01882279 0.38928723 -0.015571057
0.015799435 0.01864191 0.017847681 -0.007808079 0.029592263 0.011617197 0.024488006 -0.04084406
0.24614169 -0.036833767 0.042101335 -0.014595391 0.034342654 -0.015418866 0.03658989 0.008933041
-0.022366406 0.03511665 -0.025183883 0.0325308 0.03889055 0.013238471 0.09225684 0.039255746
-0.019270292 -0.020657627 0.036922067 0.06806824 -0.019251596 0.03965813 -0.027584376 -0.023898333
0.09309868 -0.02794275 0.013162684 0.01353806 -0.025480941 0.036799863 0.045869555 0.02001274
0.3656663 -0.023292951 0.21335045 0.029318424 -0.023102207 0.015064977 0.026613249 -0.017479898
0.022678329 0.005573528 0.028393913 0.0222439 0.24902388 0.21440654 0.28603145 0.008957442
