weather_tcn_mdn_best.pth (torch, 203503 bytes, 19 tensors)

tcn.0.conv1.bias f4 [64]
00000000: 49b0 14bc f869 c03a d46f 85bb d8e2 81ba
00000010: 41b1 d4bc 1905 f739 e763 f23b 0eaf 6b3c
00000020: 5ff2 5c3a 58b3 a4b8 adb9 69bc 2d96 cf38
00000030: 04bb 0dbd 035e 4a3a 3e6f e9b8 51ca 9d3c
00000040: 0763 f7bb f478 7f3b d16f 89bc 1c2c d33c
00000050: e4c5 8d3d 2c89 5abc 6b3f 1e3d ef53 86bd
00000060: 3bfd da3a fb74 0bbc edcc 4f39 115c 9b3c
00000070: 63ee e8bc 8f0b de3c f7b5 e3bd 7741 653d
00000080: 9244 a73c bfbc 8bbc d7c6 7c3b 0d2b 473d
00000090: bbb3 663c 461d ae3b df49 44b9 f5bc 243b
000000a0: 4c3e 073c 7da8 31bb 3c95 b3bc 8480 863d
000000b0: 3f17 8bba 5899 feba 89db bb3b dc36 61bc
000000c0: b595 7e3b 17e3 26bb 0fc2 0bbd 8096 d83a
000000d0: 6e0c b43b 394a bebc 7083 8f3c dd04 a4b7
000000e0: a987 17ba 68b8 313b e989 9d3c b123 313d
000000f0: 6b9c 1cbc de1d 54bc 29d5 583c 3e7a 1f3b
-0.009075233 0.0014680019 -0.004072169 -0.0009909524 -0.025963427 0.0004711531 0.007397163 0.014384998
0.000842845 -7.853535e-05 -0.01426546 9.8985016e-05 -0.03460218 0.00077196973 -0.00011131026 0.019261511
-0.007549647 0.0038982006 -0.016776951 0.025777869 0.0692251 -0.013338368 0.0386347 -0.06558978
0.0016707549 -0.008511777 0.00019817399 0.0189648 -0.028433984 0.027105121 -0.111186914 0.055970635
0.020418439 -0.017057775 0.0038570666 0.04862504 0.014080937 0.0053135483 -0.00018719536 0.0025137041
0.008254599 -0.0027108483 -0.021921746 0.06567481 -0.0010611786 -0.0019424362 0.0057329577 -0.01374599
0.0038846557 -0.0025464946 -0.034120616 0.0016524345 0.005494646 -0.023228751 0.017518729 -1.9552588e-05
-0.0005780408 0.0027117971 0.0192308 0.04324693 -0.009558777 -0.012946574 0.013234415 0.0024334337

tcn.0.conv1.weight_g f4 [64, 1, 1]
00000000: c21b 3e3d 7f8c 3bbd 974d e33c 9e1c f7bc
00000010: fe6f ce3c 1087 9d3c dd5f 083d e24f 9c3c
00000020: 5dd0 7f3c cbe1 a23c 6b8d 1f3c b436 aabb
00000030: 9cc3 273d 4c3c 2cbc 90b9 d6bc 3791 4e3d
00000040: 54ec 2bbc f932 2e3d b66f 393d 02df 1b3c
00000050: 17c5 9c3d 5614 c83c 0223 283d a2a7 c43e
00000060: 1977 f43c 7ea9 183d 6922 07bd 7969 a1bb
00000070: 2284 d03c 98bf d93c a097 c53d fa9c 733d
00000080: 7f52 713c 6675 83bc 3dbb 17bd 1731 353d
00000090: 4738 a33b 6405 3d3d 9629 febc 58e8 e23c
000000a0: a71e 853d 070b 063d 0950 083d 6148 793d
000000b0: f5ad f53c c17f 383d 71ec f23c 38f2 55bc
000000c0: 8545 7fbc 2cc8 d93c d5f8 e63c 3732 d03c
000000d0: 2b71 ed3c 5c6d dc3c 0cc8 ec3c 56d0 81bc
000000e0: e1a6 e8bc c7d3 82bb 9b31 dc3c 8c77 373d
000000f0: e893 8d3e 340c 583c d17b 0f3d 6b01 bdbb
0.04641319 -0.045788284 0.027746959 -0.030165013 0.025199886 0.019229442 0.033294547 0.01908106
0.0156136425 0.019883057 0.0097383065 -0.0051945094 0.040958032 -0.010512423 -0.02621153 0.050431456
-0.010493357 0.04252908 0.04527255 0.009513618 0.076547794 0.02442376 0.04104901 0.38409144
0.029841946 0.037271015 -0.0329918 -0.0049259034 0.02545363 0.026580617 0.09648061 0.059475876
0.014729141 -0.01604719 -0.0370438 0.04423627 0.004981074 0.04614772 -0.03102569 0.02769868
0.06499987 0.03272536 0.033279452 0.06086004 0.029990176 0.04504371 0.02965376 -0.013058238
-0.01558054 0.026584707 0.028194824 0.02541457 0.028984627 0.026907615 0.028903984 -0.015846413
-0.028399887 -0.003992531 0.026879122 0.044791743 0.27651906 0.013186503 0.03503019 -0.0057679913

tcn.0.conv1.weight_v f4 [64, 26, 3]
00000000: 6af6 6c38 933a 2638 1ec7 0338 5d13 8ab9
00000010: 2c9b 32b9 ea7c e8b8 b8f0 4b3a 8335 5a3a
00000020: 2f20 653a c25a fab9 0175 d6b9 8319 afb9
00000030: 9ac0 8d37 8095 eb37 72a8 c937 b867 9038
00000040: 69ce dc38 3d50 d438 405c aa39 6990 9c39
00000050: 6d0a 9c39 3236 1a3a 7506 bf39 837f 6939
00000060: 7a47 023a f97a 8439 2f4f 28b8 7357 83ba
00000070: 2fdc 9aba 0264 a6ba 5eaa c03b 1c0c d23b
00000080: a0dc ea3b 0026 45bb a045 73bb 02f2 95bb
00000090: 9689 c5ba 9649 c4ba e795 c3ba f6fe e23a
000000a0: fb35 e53a 21ee e73a 57b0 b0b9 2c92 86b9
000000b0: 9ac2 38b9 1c4d 4b39 3f6e 6039 a388 5839
000000c0: 99fa bdb9 26ea bdb9 63a0 bdb9 aa8c 133a
000000d0: 254d 033a ef11 ed39 8838 9f38 fc3c 8938
000000e0: c213 7238 65af aeb7 cd85 00b8 b2cf 2bb8
000000f0: be8f 6939 917b 6e39 4de8 6e39 c5f9 4038
00000100: ed67 2f37 3a28 14b7 74a3 32b9 2069 2cb9
00000110: 09b2 1aba 017a 5b39 166a 2537 cd9d 27b9
00000120: 8076 35ba e348 d6b9 7707 fc39 6ce6 7639
00000130: f53c 2339 458a 38b9 a689 0839 7b4d 5d38
00000140: 9cb3 b2b7 d503 3c39 4d61 0c3a 9aed 4c3a
00000150: cca8 8239 e591 5e39 8627 2439 ec44 a4b9
00000160: 1e2d 53b9 edbd 17b9 2062 c737 d170 f737
00000170: e08a 0538 9b01 0538 d06c 3838 9995 8a38
00000180: 43d8 1b3a ef58 143a 1e3c 0c3a 8976 9d39
00000190: 36d0 d3b9 7f47 74ba 5c73 543b ca98 e73a
000001a0: 86ed 9d39 4aba adbb d378 c3bb caf4 c8bb
000001b0: ef46 ccba a091 c7ba 1024 d6ba 0bb4 0f3b
000001c0: 1cc7 283b d456 4d3b 8b24 0cbb a4f2 0bbb
000001d0: c8c5 0bbb 6cc3 6a3b e2a5 6b3b b0d5 6c3b
000001e0: 3903 27b9 10ed 4139 8d74 003a 0e02 193a
000001f0: 1ec3 263a 6c01 133a bd20 1cb9 1508 18b9
00000200: 5879 17b9 dd2b 233a f59a 203a d6d0 1a3a
00000210: 41a3 5339 cb9c f938 e2a4 6b38 0c58 deb7
00000220: 816f c3b7 bf89 ce37 e611 0839 74c7 0d39
00000230: 9683 1839 c6ca c8b9 0a5a c9b9 75d0 cfb9
00000240: 0237 80b9 56b7 82b9 e5c5 30b9 5429 0139
00000250: a948 b134 5746 83b9 6476 74b9 dd6b 8bb8
00000260: 5139 4639 cbf6 0a39 a13b 8338 8c0f ccb6
00000270: b442 4739 1907 eab6 542b 4ab9 ccf8 04ba
00000280: 29fd 2cba 7846 3eba 8104 2c39 589a 3c3a
00000290: da58 aa3a dcf2 6eba 9df3 39ba 9d8b 05ba
000002a0: 2fc5 3c39 ef29 3f39 0e48 5039 9192 7cb8
000002b0: 90f8 a738 284f 5f39 e40c c33a 136a 9c3a
000002c0: 8a4a 663a 0bc3 363a 2a13 0a3a 3202 b939
000002d0: 6e34 03b5 05c1 a6b9 45d1 27ba 6702 a0ba
000002e0: 1964 adba 8d19 acba fd4b 9e39 a7dd 083a
000002f0: 89c9 303a 81b3 2b3b d85f 443b 6800 6f3b
00000300: 45cf 75bb c5fe 75bb f343 76bb 0cc5 b53b
00000310: 028b b53b ddad b53b 00ec 04ba 7f25 0cba
00000320: 0cb1 1fba bb0d f6b9 f4f0 79b9 8558 3cb9
00000330: f933 96ba 6472 95ba e8ec 96ba d1dd fb38
00000340: 4318 efb8 1a9a dab9 edef 9739 d5db 1039
00000350: a9b5 ceb7 3cc4 d239 294f e939 adb3 293a
00000360: ab18 483a f8df 433a 36fc 3c3a af53 b5b9
00000370: 2377 6db9 a9d2 35b8 69ae 56b9 779d 1c38
00000380: c463 54b7 779d a1b9 a2e2 9bb9 6e5f 2eb9
00000390: bfdb 7238 e8ef 9db7 4212 5d39 96e9 43b9
000003a0: dda5 96b9 a7bf 9eb9 69ff edb9 fefb 14ba
000003b0: b933 41ba 3e84 a4ba 0903 e8ba 681b 08bb
000003c0: 9121 c03a 24bf 1b3b 7024 5b3b 2397 43ba
000003d0: 60c8 07ba 28ba 93b9 cb96 9c39 e845 a139
000003e0: 089c b139 750c 7bb9 4305 d2b8 30c4 7538
000003f0: 8e46 8d3a 6c79 333a a99b 9439 9ddd b939
5.6496276e-05 3.9632036e-05 3.1418276e-05 -0.00026335838 -0.00017033209 -0.00011085889 0.00077797053 0.0008324014
0.00087404525 -0.00047751336 -0.00040904435 -0.0003339761 1.6898197e-05 2.80838e-05 2.4039506e-05 6.885774e-05
0.000105288644 0.00010123893 0.00032493658 0.00029862233 0.00029762406 0.00058827095 0.0003643517 0.00022268113
0.0004969757 0.00025268624 -4.0128067e-05 -0.0010020569 -0.0011814887 -0.00126946 0.0058796844 0.006410135
0.007167414 -0.0030082464 -0.0037120357 -0.0045759687 -0.0015070911 -0.0014975544 -0.0014921994 0.0017318416
0.0017487401 0.0017694869 -0.0003370072 -0.00025667378 -0.00017620102 0.00019388314 0.00021403375 0.00020650266
-0.000362356 -0.00036223343 -0.00036168387 0.00056285656 0.0005008749 0.00045217524 7.5922406e-05 6.544028e-05
5.7715697e-05 -2.082409e-05 -3.064219e-05 -4.096301e-05 0.0002227416 0.00022743481 0.00022783988 4.6008983e-05
1.045501e-05 -8.830853e-06 -0.00017036294 -0.0001644236 -0.0005901163 0.00020930918 9.859466e-06 -0.00015985146
-0.000692226 -0.00040871566 0.00048070747 0.00023546227 0.000155676 -0.00017599117 0.00013021249 5.2762665e-05
-2.130289e-05 0.00017930505 0.0005355075 0.0007817388 0.00024921296 0.0002122592 0.00015654982 -0.00031331868
-0.00020139336 -0.00014471235 2.3768342e-05 2.9497229e-05 3.183901e-05 3.1711166e-05 4.3970358e-05 6.6082175e-05
0.0005945006 0.0005659004 0.00053495343 0.0003003369 -0.00040400185 -0.0009318515 0.0032417392 0.0017669436
0.00030122342 -0.0053017484 -0.005965331 -0.0061326968 -0.0015585105 -0.0015225895 -0.0016337652 0.0021927382
0.0025753444 0.0031332271 -0.0021384086 -0.0021354342 -0.0021327604 0.0035822047 0.0035957028 0.003613811
-0.00015927562 0.00018494227 0.000490018 0.0005836793 0.0006361472 0.0005607817 -0.00014889515 -0.0001449886
-0.00014445686 0.00062244927 0.0006126606 0.0005905753 0.00020183345 0.0001190245 5.6181925e-05 -2.6505462e-05
-2.3297735e-05 2.4621257e-05 0.00012976638 0.0001352111 0.00014544869 -0.0003829805 -0.00038404792 -0.0003963743
-0.00024455047 -0.00024932128 -0.0001685839 0.00012317795 3.3021686e-07 -0.00025038674 -0.00023313757 -6.6481276e-05
0.00018904103 0.00013252643 6.2576735e-05 -6.0814837e-06 0.00019002968 -6.9745697e-06 -0.00019280362 -0.0005072474
-0.0006599003 -0.00072584255 0.00016404876 0.000719463 0.001299645 -0.00091151684 -0.0007093491 -0.00050943514
0.00018002534 0.00018230801 0.00019863268 -6.0217983e-05 8.009479e-05 0.00021296425 0.0014881161 0.0011933468
0.0008784911 0.00069718127 0.0005267138 0.00035287585 -4.88776e-07 -0.00031805798 -0.0006401728 -0.0012207747
-0.0013228684 -0.0013130173 0.00030192724 0.0005221017 0.0006743898 0.0026199522 0.0029964354 0.0036468748
-0.0037507575 -0.0037535888 -0.0037577122 0.0055471715 0.0055402527 0.0055444078 -0.0005070567 -0.00053461635
-0.00060917507 -0.00046931006 -0.00023836253 -0.00017962053 -0.0011459581 -0.0011401889 -0.0011514695 0.00012009929
-0.00011400927 -0.00041695015 0.00028979723 0.00013814804 -2.4641706e-05 0.00040200527 0.00044500202 0.0006473612
0.00076330703 0.00074720336 0.0007209213 -0.0003458536 -0.00022646463 -4.3349955e-05 -0.00020473603 3.733995e-05
-1.2659413e-05 -0.00030825633 -0.00029732758 -0.00016629483 5.790195e-05 -1.8827574e-05 0.00021083004 -0.00018683667
-0.00028733807 -0.000302789 -0.00045394458 -0.0005683302 -0.0007370073 -0.0012551618 -0.00177011 -0.0020768289
0.0014658441 0.0023765052 0.0033438466 -0.0007461181 -0.00051796995 -0.00028176722 0.00029866988 0.00030760397
0.00033876323 -0.00023941866 -0.000100145604 5.8595266e-05 0.0010778473 0.00068464014 0.00028344736 0.00035451064

tcn.0.downsample.weight f4 [64, 26, 1]
00000000: 6775 9e3c 957b 0539 46ab 363d 35d1 30bb
00000010: 0b3f 4a39 1f04 093a d8ce 9b3b 6487 b239
00000020: 62f7 233b 4615 2cbd da66 3a3e a367 03be
00000030: 5fff 4a3c fd09 9c3d 9710 ff3c 9a38 e43b
00000040: 6f4e 713d 4331 213c 4d72 e03c d615 d539
00000050: 0bc2 1bbc 9441 a439 ac0a 92bc 5efb b1bc
00000060: 04f4 b4bc 099a abbc dab1 1abb 4ebf 25bd
00000070: 77a1 543c 80b5 e53a 0a02 1eb9 2aac b6b9
00000080: 4454 85bb 1ce4 873c a8b6 c6bc 304f 453e
00000090: 9a18 1b3d bc39 d5bd e2d8 f33c 1bf0 e2bd
000000a0: 7424 e73c 16ef fdbb b1a2 fabc 54b3 5bbb
000000b0: 850d f5bb 120e 95b7 c0f3 383c 0e9e 8c3b
000000c0: 8575 003c 3820 273c 3f1c 5f3c 2aba cf3b
000000d0: 4525 03bd 0619 283d c418 8b3d 07fa 4cbb
000000e0: 5ac7 5d3a 8413 813a c8bd 733c 27bc a03c
000000f0: 17bb c4bb 8b41 8fbd d512 b23c c3f7 093e
00000100: 0eec 69bd 04a5 083e 1e28 313c 3635 803b
00000110: 39e5 29bd 79dc fd3c 35c3 51bc 008e 6c3b
00000120: ea7e 8b3b e340 1639 daab 663b d037 713b
00000130: 51ca 0d3c c228 b03b cada 883c 0c15 c63d
00000140: 2d6e 4ebe 8e3b 8e3a 28af d1ba a67a 75b9
00000150: 3726 9cbb 13e7 df3c 2483 d43c f82c b5bd
00000160: 0769 003e f57f dcbd 975a 523c a1bf c43c
00000170: affb 9e3c c714 253b be34 4d3d fd5c cb3c
00000180: a520 25bd 818c 9cbb bb91 9fbc d91f d8bb
00000190: c631 623c 2a4c 9c3c 1f63 eb3c 100c a53c
000001a0: a8a0 c23a db85 ccbc 6f82 dcbc 3233 cfbb
000001b0: 129c 8fb8 7091 84ba 0be7 fbba 3d22 d43c
000001c0: b0c7 0539 a769 043c 135b 89bb a087 39bb
000001d0: e95d ffbc 66a0 003d 8fe0 a6bc 7154 0bbc
000001e0: 0be1 c2bc 1614 ad3a 0c82 dcbb 720c 94bb
000001f0: a446 3c3c a492 27bc 5be2 98bc fdc8 c9bc
00000200: 6932 70bc 00df 9bbc c918 863d 3e1a eb3d
00000210: 141f fcbc 6adb 383c d9a4 84ba 2fa7 483a
00000220: 78e9 9cba f584 bf3c 7a0c 01be a541 00bd
00000230: 141b 1abd 0d5d c83c 5bed 9f3d 38b3 17bd
00000240: 892e b93d 6b91 f1bc ce28 7e3d c2b1 4bbc
00000250: 6ff7 45bc 3671 23bc a038 41ba bf2c 9dbc
00000260: a2e5 11bc 49b8 13bc 9557 2d3b e72e 9ebb
00000270: 5fb7 8fbd 6598 9dbc bf9e 843d 881b 8eb9
00000280: 99a1 113a 75f4 e739 02c2 323b 24ad d4bc
00000290: 8174 953b dca9 c13d 708c ac3d 7b6a e9bc
000002a0: 7c6e 2cbe 602d 3f3d 7a27 c83c 60b5 4f38
000002b0: b196 cd3c 7c86 b33b a5c9 81bd e606 af3b
000002c0: 97b6 273d b791 a13c 702b 9e3c 9327 e23c
000002d0: f748 9c3c 8b2b 983c 5979 0f3d 4bf7 033d
000002e0: aaa3 033c 3ed6 3a3b e26f 0dba 1e7b 6ab9
000002f0: 05ac 263c c772 103d 68f6 15bc 6440 aa3c
00000300: 85c1 443c 0f69 8d3c 4053 033e 58ff 343d
00000310: f401 193d f968 b43b e1ef 273d d38d 223d
00000320: 9ccb fe3c 7aae 783a 1d10 a43c 4b12 2b3c
00000330: ae12 8f3c 12c8 7d3c 1aa2 1a3d 6084 bb3c
00000340: 9bd4 72bd e7ce d7bd 26ff 26bd 0b3f eeba
00000350: 090a c13a b48f 0a3b 21ce 333b 0904 0dbd
00000360: 81fc 3ebd a813 813d 0835 1a3c 31d0 f33d
00000370: 528d 87bc 17ca f53d ca0b b63c 36e2 ecbc
00000380: c1d6 b6bc 9b11 86bc 6b22 75bd ef30 ca3b
00000390: f7d9 e83c 56ba d03a 3e85 14bc 7635 50bc
000003a0: 07b8 f8bb 9a37 4fbc 3fb3 f0bc 101d 23bd
000003b0: 7dbc 1cbd 8124 05bb 900d b73a 08bc af38
000003c0: 3581 a53c bb79 7e3c 43ff e63b 9673 283e
000003d0: 9c7d 1bbd 9744 843c c4b3 a03d 187c e53d
000003e0: 706b 95bd b18b 813b 6bfa 9bbc 0e94 503c
000003f0: 2e69 863d 82fd c63b bf44 64bc 4f2f 493c
0.019343091 0.00012729906 0.044596933 -0.0026980166 0.00019287707 0.00052267493 0.0047548823 0.0003405168
0.0025019278 -0.042012475 0.18203297 -0.12832503 0.012389987 0.076190926 0.03113584 0.0069647552
0.05891269 0.009838405 0.027398253 0.00040642795 -0.009506713 0.00031329377 -0.017827354 -0.021726307
-0.022089012 -0.020947473 -0.0023604543 -0.040465645 0.012977949 0.0017525405 -0.00015068814 -0.00034842017
-0.004068883 0.016588263 -0.02425702 0.19268489 0.03786526 -0.104114026 0.029766504 -0.11080953
0.028215624 -0.0077494485 -0.030595155 -0.0033523636 -0.0074784183 -1.7768736e-05 0.011288583 0.0042913025
0.007840519 0.010200553 0.013617574 0.006339331 -0.032017965 0.04103949 0.06791833 -0.0031276958
0.00084601867 0.0009847735 0.01487679 0.019620968 -0.006003748 -0.06994923 0.021737495 0.1347342
-0.057109885 0.13344198 0.010812787 0.0039125932 -0.04147837 0.030988919 -0.012802889 0.003609538
0.0042570727 0.00014329287 0.0035197646 0.0036806948 0.008654193 0.0053759525 0.01670589 0.09671983
-0.20159216 0.0010851489 -0.0015997635 -0.00023410711 -0.0047652978 0.027331864 0.025941439 -0.08846468
0.12540065 -0.10766593 0.012838981 0.024017157 0.019407121 0.0025189386 0.050099127 0.024824614
-0.040314335 -0.0047774916 -0.01947867 -0.0065955934 0.013805812 0.019079287 0.028733788 0.020147353
0.0014848905 -0.024966171 -0.026917664 -0.0063232416 -6.847842e-05 -0.0010114145 -0.0019218636 0.025895232
0.00012758258 0.00808183 -0.004191765 -0.0028309599 -0.03117271 0.031402968 -0.02037075 -0.008504019
-0.02378895 0.0013204839 -0.00672937 -0.004518085 0.011491451 -0.010227833 -0.018662622 -0.024631971
-0.014660456 -0.019027233 0.06547696 0.11479615 -0.030776538 0.011282781 -0.0010119929 0.0007654307
-0.0011971435 0.023378829 -0.12602416 -0.031312604 -0.03762348 0.024458433 0.07808944 -0.03703615
0.09042079 -0.029488286 0.062050633 -0.0124325175 -0.012082919 -0.009975722 -0.00073708035 -0.019186376
-0.008904846 -0.009016105 0.0026449908 -0.0048273685 -0.07017397 -0.019237706 0.06475591 -0.00027104863
0.0005555391 0.00044241888 0.0027276282 -0.025961466 0.0045610075 0.09456226 0.08425224 -0.028493157
-0.16839021 0.046674132 0.024432886 4.9521565e-05 0.02509627 0.0054786783 -0.06337289 0.0053413985
0.040945616 0.019722803 0.019307822 0.027606761 0.019077761 0.01857545 0.035027836 0.03221826
0.008034626 0.0028509046 -0.0005395395 -0.00022361844 0.010172849 0.03526571 -0.009152986 0.020782657
0.012009029 0.01726201 0.12824726 0.044188827 0.03735538 0.005505678 0.04100025 0.039686035
0.031102948 0.0009486448 0.020027215 0.010441373 0.017464962 0.015489595 0.03775225 0.02289027
-0.059284788 -0.1053751 -0.040770672 -0.0018176747 0.0014727722 0.0021142783 0.0027436095 -0.034427676
-0.046627525 0.06302577 0.009412058 0.11904944 -0.016546879 0.12001436 0.022222418 -0.02891646
-0.0223192 -0.016365817 -0.059847277 0.006170384 0.028424246 0.0015924673 -0.009064971 -0.012708059
-0.007590297 -0.012647534 -0.029382346 -0.039822638 -0.038265694 -0.0020315947 0.0013965834 8.379674e-05
0.020203212 0.0155319525 0.0070494725 0.16450343 -0.037961587 0.016145987 0.078467876 0.1120531
-0.07295883 0.00395342 -0.019040307 0.0127306115 0.0656303 0.006072701 -0.013932406 0.012279346

tcn.0.downsample.bias f4 [64]
00000000: faa6 a2bd 518a 4e3d 8403 78bd 6176 543d
00000010: a30b 0cbe d604 7bbc ad55 1b3e bc9e 183e
00000020: e027 e53d 0685 41bd 6726 efbd 02c8 233d
00000030: d97d 0abe 1f41 e93b 764f 8ebc c2aa 4d3d
00000040: 5197 2bbe 503c d73d 9b0a eabd a5c1 4c3e
00000050: cff0 243e c0a2 01be 1c1c 2a3e d283 2ebd
00000060: 6143 47bd f4b8 8d3d 4553 b7bd 3cea 113e
00000070: 44dc 15be 101f a03d e15f 62be db5d 1b3e
00000080: 1800 283e 6f7c 2abe a969 ff3d a2a5 5d3e
00000090: 51a9 453e f8e5 973d 3e65 c53d 5dd6 7d3d
000000a0: eb94 cc3d 4b5e 0dbe 7284 1cbe f3b4 4a3e
000000b0: ddce 9a3c f96c 68bd c388 353e 7c6f 90bd
000000c0: dcd9 073d 27f7 763c d8a2 16be 2c03 703d
000000d0: 939f e13b 1b1f a83c 2cee 473d a0a6 9bbd
000000e0: 1295 673d 2ea1 e3bd c3c3 063e 01eb 583d
000000f0: 5842 58bd fa7c 82bd d54b b03d 9bee 86bd
-0.079420045 0.050424878 -0.060550228 0.051870707 -0.13676314 -0.015320977 0.15169401 0.14904302
0.11189246 -0.047246 -0.116772465 0.039985664 -0.1352457 0.0071183587 -0.017371874 0.050211675
-0.16756941 0.105095506 -0.11427804 0.19995745 0.16107486 -0.1265974 0.16612285 -0.042606182
-0.048648242 0.06920043 -0.08951429 0.1424951 -0.14634806 0.07818425 -0.22106887 0.15172522
0.16406286 -0.1664903 0.12471325 0.21645215 0.1930287 0.0741691 0.09638451 0.06197201
0.09989341 -0.13805501 -0.15284899 0.19795589 0.018897468 -0.05674455 0.17727952 -0.07052514
0.03316675 0.015073574 -0.14710557 0.058596775 0.006885478 0.020522645 0.048811123 -0.076001406
0.05653865 -0.11114727 0.13160615 0.052958492 -0.052797645 -0.06371494 0.08608214 -0.06588479

tcn.1.conv1.bias f4 [64]
00000000: 0635 68ba b4a8 c73a 91bb 95ba 8d16 a2b9
00000010: 3bcf bcbc e2b7 9fba 1ecb 643b 774c e0bb
00000020: 9161 1d39 ee09 ff3a 91b0 b33b baf8 28bc
00000030: 8848 a6ba 74b1 163b aaa1 91ba 6280 813b
00000040: 0e3a f5bc 9f31 b43a ce55 fdba 115b 29bc
00000050: ea82 9dbd b116 f33b 1123 c33b 4ac4 bf3b
00000060: 8ce4 9139 e4f5 86b9 2339 f339 d917 f1bb
00000070: b659 5bbb e5a9 d03a 0ff4 3bbd 5dc6 bd3c
00000080: ed9b c3b9 5183 77ba 260c 7d3a 0a32 043d
00000090: aaca f9bb d711 363b 6f19 0039 0d89 0539
000000a0: 5a32 4b3c 4b81 44ba 8b9d 15ba 6295 e038
000000b0: 9da3 25bb aeb5 c9ba 36f7 823b ce4b 9d3a
000000c0: 0328 163b 60b6 12bb 52f8 b8bc 83c2 91bd
000000d0: 720a 013b 2812 4cbb 28f0 91bd ce55 00b8
000000e0: f787 bdba 4560 a53b d5fc ccba ccaf d13a
000000f0: 620d ebbc acc3 b23a a8fb 20bd 360f 4e3b
-0.0008857999 0.0015232773 -0.0011423697 -0.0003091585 -0.023048034 -0.0012185539 0.0034911106 -0.006845053
0.00015009033 0.0019457915 0.005483695 -0.010313207 -0.0012686411 0.0022993954 -0.0011110802 0.003952072
-0.02993491 0.0013747698 -0.001932794 -0.010336653 -0.076909855 0.0074184765 0.005955108 0.005852257
0.00027826836 -0.00025741674 0.00046391142 -0.007357579 -0.003347022 0.0015919773 -0.04588705 0.023165876
-0.00037309472 -0.000944187 0.00096529943 0.032274283 -0.0076230364 0.002778163 0.00012216506 0.00012734924
0.0124021415 -0.0007496073 -0.00057073747 0.00010708977 -0.0025274523 -0.0015389228 0.003996755 0.0012000741
0.0022912032 -0.0022386536 -0.022579346 -0.07117178 0.0019690064 -0.0031138752 -0.07125884 -3.059749e-05
-0.0014460076 0.0050468766 -0.0015639315 0.0015997826 -0.028692905 0.0013638637 -0.039302498 0.0031442172

tcn.1.conv1.weight_g f4 [64, 1, 1]
00000000: ca75 24bd fd3d 1a3d 8672 aabc 4aba aabc
00000010: 488a 433e 2a5b 8dbc 055b aabc 5df0 de3b
00000020: d8ed 693c 3349 883c 89ae 2c3c c362 6a3c
00000030: c41a f4bc 50d1 1c3c f7d9 c03c 2a2b 2f3d
00000040: da94 6d3d 75ff 09bd ca32 423d 5634 b4bb
00000050: 9ad0 da3e 5fca 873b 122d 203d 4f18 f9bb
00000060: ec67 bb3c 2d07 bebb 0058 ea3c 7884 b73b
00000070: 4604 73bc 5d44 4bbc 702f 9e3d dd80 503d
00000080: ebf0 343c 33a4 71bc 68bd 113d 962f 6a3d
00000090: 272c b8bb 067c 1c3d 1515 e63c 06a7 cbbc
000000a0: cc32 b33d 854c f63c 4799 083c e125 8d3c
000000b0: 7915 ce3c 44e6 173d ef37 afbc 16d3 55bc
000000c0: cd15 5bbc e4af bfbc f1fc 443e e23b c43e
000000d0: c660 c3bc 40b4 6a3c cb1d c13e 09a6 873c
000000e0: ceb2 af3c 0612 a53b 1d7c c63b 3221 bbbc
000000f0: 1852 813e fa04 733c c6bc 993e 1287 083c
-0.040151395 0.037656773 -0.020806562 -0.020840783 0.19095719 -0.017255384 -0.020795355 0.006803556
0.014277898 0.016636467 0.010539659 0.014305773 -0.02979792 0.009571388 0.023541434 0.042765774
0.058003284 -0.03369089 0.047411717 -0.005499403 0.42737275 0.0041439976 0.039105482 -0.0076017748
0.022876702 -0.0057991953 0.028606415 0.0056005083 -0.014832562 -0.012406436 0.07723892 0.050904144
0.011043767 -0.014748621 0.035581023 0.057174288 -0.0056204977 0.038204215 0.028086225 -0.024859916
0.08749923 0.030065784 0.008337325 0.017229976 0.025156723 0.037084833 -0.021388976 -0.013050815
-0.013371897 -0.0233993 0.19237114 0.38326937 -0.023849856 0.0143252015 0.37718043 0.016558664
0.021447565 0.005037549 0.006057276 -0.022842977 0.25257945 0.0148327295 0.30026835 0.0083329845

tcn.1.conv1.weight_v f4 [64, 64, 3]
00000000: be00 d7ba 555e f0ba f6f8 08bb 1cf5 32b9
00000010: a53d 38b9 9ffe a6b9 3d9e 78b9 afe2 34b9
00000020: be43 68b8 d12a 64ba ac2f 86ba 464e aaba
00000030: 5440 fab8 c637 d3b8 63fd d9b8 8602 393a
00000040: d429 303a 6d89 273a 4e4d 66ba 3ef4 68ba
00000050: 2436 82ba 3ba4 1939 f4f7 1c39 d78c 0a39
00000060: b382 d438 4877 6239 b4c0 b239 1689 3a39
00000070: c7ee 9739 e733 d839 0b02 7f38 d863 8c38
00000080: 1d3c a838 c689 8939 4bfd 8439 554c 8f39
00000090: a8cd 033a 4bd7 1d3a 8d9d 3b3a 24d3 0639
000000a0: f8c7 e838 44db 2938 d401 e439 02b0 fd39
000000b0: 0434 033a 204b 8438 d2ac d0b5 2cd3 2ab9
000000c0: c916 2539 95c5 2739 8dd1 f738 b2b0 04ba
000000d0: c877 16ba 965a 3fba 1a67 5fba e3c7 77ba
000000e0: ca47 8eba 7eb6 7d38 69b7 8f38 5c99 8738
000000f0: 831a 5d3a 586a 613a e6ca 753a 13ad b9b8
00000100: 61a5 aab8 954d c8b8 93fe 3c39 9060 8238
00000110: 4672 0db8 1e86 03ba c8da e9b9 0ff9 22ba
00000120: ca0a 8b3a ff10 953a db65 b23a 68f8 ddb9
00000130: 5505 cab9 2c94 c5b9 6aed 56ba c9ad 67ba
00000140: e2ba 91ba fab0 e4b8 e469 bab8 fef7 b1b8
00000150: 5a4e 1f37 7747 9937 5091 3b38 f4ba 98b9
00000160: c451 abb9 921f dcb9 2270 deb9 98ac e7b9
00000170: d7c7 f3b9 90d1 a939 73e3 8239 09e7 6239
00000180: 2ab1 ad38 8e62 cc38 e855 bc38 977b 54b9
00000190: 1248 4bb9 e2a5 39b9 bf4c 9139 484b 3739
000001a0: 47bb a338 e7ea 97b8 9b60 69b8 d407 30b8
000001b0: ef35 0237 575e c637 08e7 c237 2906 033a
000001c0: 4d4c e639 e8dc eb39 96bc afb8 2656 a638
000001d0: 38ba ad39 e35b fab8 51ae 84b9 655e e9b9
000001e0: 5954 26b9 b7ab 20b9 471b 43b9 6197 00b9
000001f0: 56d4 f1b7 ff81 3938 1556 023a 8faa 1c3a
00000200: f96a 453a 332f fd39 e2fd 023a f7f4 103a
00000210: ebe8 3eba 911a 5fba 6f07 85ba 3a40 893a
00000220: a157 a53a ea20 d13a 66d1 dc39 1393 d139
00000230: 72d7 fc39 759a 8a39 1a7d 7d39 1d7c 7039
00000240: 279a 32ba 5673 40ba 96a3 6fba bb5b 74b8
00000250: b01c 7f38 0c02 0d39 7db4 94b8 d2f6 91b8
00000260: 8810 9fb8 0ddd 86ba 5668 82ba 4077 8bba
00000270: d297 6539 4c3d d038 c386 0238 059f 9dba
00000280: 217f a5ba 7402 baba b34e de38 0ddd 3339
00000290: 2c95 8b39 12e9 38ba 3163 4aba 4a02 67ba
000002a0: 638f 32ba 99d0 22ba 21d0 0dba 360b be38
000002b0: 2e31 e238 a30b 0839 2f67 07ba 61b7 e0b9
000002c0: ccc9 95b9 88e4 2eba 2253 39ba 8fc9 5fba
000002d0: 1619 52b8 7a94 94b8 916e fbb8 5ecc 0239
000002e0: 5926 e138 fac4 a038 6a0b 113a 5a3b 283a
000002f0: 1bb1 423a 3ba9 f338 5591 1739 f2d1 4b39
00000300: 9db6 1e39 ecfc 7d38 7926 0d39 5147 c03a
00000310: 2b16 fd3a 95cd 033b b699 87ba 991f a6ba
00000320: c9dc baba d500 c438 09fe bbb8 6161 98b8
00000330: bbc3 3cb9 b401 efb8 675d 45b8 ac20 623a
00000340: 1a0e e939 2314 95b8 ef42 8bb7 97d4 2a39
00000350: 4757 7c39 41ba 6039 72c3 5b39 2876 2539
00000360: 7d80 0fb9 6365 0eb9 f114 a6b9 1ed5 0038
00000370: bef4 003a 3f94 3d3a 5c0f 5f38 6a1e a438
00000380: 2f2e bf38 e636 8737 1105 ebb8 6a80 1cb9
00000390: efb3 213a fe92 473a b0b6 563a 2b8e 293a
000003a0: 6db0 1f3a 022f f839 baff 9a3a 277a ae3a
000003b0: 4fe5 a73a d9e4 af3a 6857 513a d609 3ab6
000003c0: f2aa 433a df70 3a3a cb19 183a 212d 053a
000003d0: f6d0 5a3a b786 833a 3e5e 44ba 0693 48ba
000003e0: 719a 2aba 1765 4b38 b158 ad38 a631 9a38
000003f0: a772 cfb9 6300 a1b9 f1a8 5bb9 7cce 1d39
-0.001640342 -0.001833866 -0.0020900345 -0.00017066713 -0.00017570572 -0.00031851695 -0.00023710071 -0.00017250584
-5.53762e-05 -0.000870389 -0.0010237596 -0.0012993298 -0.00011932911 -0.00010071653 -0.00010394563 0.0007057566
0.00067201 0.00063910225 -0.0008785323 -0.00088864926 -0.0009934348 0.00014652398 0.00014969689 0.00013213172
0.000101332924 0.00021597475 0.0003409438 0.00017789411 0.00028978867 0.000412374 6.079864e-05 6.6943176e-05
8.022061e-05 0.00026233325 0.0002536572 0.00027331957 0.00050278986 0.0006021156 0.0007156961 0.00012857892
0.00011099869 4.0496947e-05 0.0004348891 0.00048387056 0.00050050044 6.3082436e-05 -1.5547505e-06 -0.00016291131
0.00015744114 0.00015999966 0.0001181691 -0.000506173 -0.00057398947 -0.000729957 -0.0008522138 -0.00094520877
-0.0010855135 6.048986e-05 6.852934e-05 6.465867e-05 0.00084344315 0.00085989153 0.00093762425 -8.853725e-05
-8.137036e-05 -9.551194e-05 0.00018023913 6.216869e-05 -3.3723445e-05 -0.00050172384 -0.00044604228 -0.0006216922
0.0010608074 0.0011372863 0.0013610678 -0.00042337482 -0.00038532415 -0.00037685165 -0.00081988296 -0.00088378467
-0.0011118317 -0.00010904852 -8.888895e-05 -8.48621e-05 9.495381e-06 1.82723e-05 4.4719607e-05 -0.0002913099
-0.00032676582 -0.00041985192 -0.00042426685 -0.00044188346 -0.00046497464 0.00032390328 0.00024964995 0.00021639107
8.282282e-05 9.745835e-05 8.98054e-05 -0.00020263936 -0.00019386437 -0.00017704771 0.00027713735 0.00017480284
7.807329e-05 -7.243995e-05 -5.56415e-05 -4.196896e-05 7.761161e-06 2.364737e-05 2.3234184e-05 0.00049981714
0.00043925867 0.0004498728 -8.379777e-05 7.931543e-05 0.00033135875 -0.00011938044 -0.00025306878 -0.00044511553
-0.00015862416 -0.00015322758 -0.00018606811 -0.00012263424 -2.8828315e-05 4.4228505e-05 0.00049719337 0.0005976343
0.0007530894 0.00048291087 0.0004996938 0.00055296667 -0.0007282632 -0.00085107336 -0.001014931 0.0010471412
0.0012614616 0.0015955244 0.00042117684 0.00039973165 0.00048225705 0.0002643649 0.00024174564 0.0002293442
-0.00068131316 -0.0007341405 -0.00091415027 -5.8259564e-05 6.0823455e-05 0.0001344757 -7.0908085e-05 -6.960113e-05
-7.58479e-05 -0.0010289267 -0.0009949307 -0.0010640398 0.000218957 9.92963e-05 3.1119922e-05 -0.0012025541
-0.0012626388 -0.0014191405 0.00010600444 0.00017153118 0.00026623288 -0.0007053773 -0.0007720469 -0.0008812292
-0.00068115274 -0.0006210893 -0.0005409737 9.061994e-05 0.0001078568 0.00012974306 -0.0005165217 -0.00042861237
-0.00028569845 -0.0006671627 -0.00070695777 -0.00085368095 -5.0091265e-05 -7.084846e-05 -0.00011989207 0.00012473899
0.00010735979 7.666084e-05 0.0005533012 0.00064175355 0.00074269035 0.000116186646 0.00014454623 0.000194378
0.00015136083 6.0555452e-05 0.0001346114 0.0014669691 0.0019308975 0.002011155 -0.0010345492 -0.0012674212
-0.0014256473 9.346163e-05 -8.9641726e-05 -7.266063e-05 -0.00018001992 -0.00011396725 -4.7055448e-05 0.00086260843
0.0004445173 -7.1086244e-05 -1.660126e-05 0.00016291659 0.00024065106 0.0002143169 0.00020958277 0.00015779643
-0.00013685408 -0.00013579945 -0.0003167759 3.071606e-05 0.0004919282 0.0007231868 5.3181648e-05 7.8257945e-05
9.116192e-05 1.6118818e-05 -0.00011206617 -0.00014925157 0.0006168475 0.0007613151 0.00081906747 0.0006468023
0.0006091658 0.0004733727 0.001182548 0.0013311551 0.0012809428 0.0013419642 0.0007985742 -2.7721885e-06
0.00074641325 0.0007112156 0.00058021833 0.0005080272 0.00083471776 0.0010034655 -0.000749085 -0.0007651303
-0.0006507999 4.849312e-05 8.265803e-05 7.35254e-05 -0.0003956754 -0.000307086 -0.00020948403 0.00015049608

tcn.2.conv1.bias f4 [64]
00000000: d2e2 0ebb a194 1a3a f214 efba 222c e8ba
00000010: 19c4 d7bc 9bf2 68ba fb83 97bd 64dc 9cbc
00000020: 81c9 faba 84c0 163a bc1b 8a3c b43c f539
00000030: 797b 9dba 66ac e83a 82ab 69ba 8af7 173b
00000040: f5e8 e5bc fc9d a139 dccb a4bb 0a7a 99bc
00000050: d9d4 b73b 544d 9d3c 0cce 963b 4d1b 983b
00000060: fdfb 2338 603c f73a ac04 d0b6 dfff 963b
00000070: 01c6 25bc 8eaa f939 9335 54bd 9b9d 863b
00000080: c18e 82bc fcc8 543c 72f3 da39 f155 a73c
00000090: 25ef 51bc 7db1 303b 8397 833a 6d46 7db8
000000a0: 5e64 26bc 175c c7ba 51d1 97ba 2080 a43a
000000b0: a7c2 40bb ea8d 29ba 8877 f73c 91b5 693c
000000c0: 5f9c 81bd 50a3 13bb 8b6d dfbc c95c ce3a
000000d0: fa9c df3a f700 7ebb a4dd 0f3b 063d 0bbb
000000e0: a6f5 07bb c814 a33b e45d 0c3c ec78 b63a
000000f0: 1d87 ddbc d5e2 d4bc 2e13 04bd ccb2 133b
-0.0021802676 0.0005896781 -0.0018240495 -0.0017713348 -0.026338624 -0.00088862487 -0.0739822 -0.01914806
-0.0019133539 0.0005750733 0.016858928 0.0004677527 -0.0012014947 0.0017751574 -0.0008913801 0.0023188316
-0.028065184 0.0003082602 -0.0050291847 -0.01873495 0.00561009 0.019201912 0.0046021994 0.0046419264
3.909691e-05 0.0018862598 -6.199427e-06 0.004608139 -0.010118009 0.00047620054 -0.051808905 0.0041081435
-0.015937211 0.0129873715 0.0004176158 0.020426722 -0.012813364 0.002696126 0.0010039661 -6.038549e-05
-0.010155765 -0.001520994 -0.0011582767 0.0012550391 -0.0029412897 -0.0006467985 0.030208364 0.01426448
-0.063286535 -0.0022527762 -0.027273914 0.0015744205 0.0017060332 -0.00387579 0.0021952176 -0.002124609
-0.0020745783 0.0049768426 0.008567307 0.0013921536 -0.027041966 -0.025987068 -0.032244854 0.002253699

tcn.2.conv1.weight_g f4 [64, 1, 1]
00000000: c1af 1c3d 2385 1a3d fe3f a9bc 7d09 c03c
00000010: be7b 603e 5a31 9abc 1417 c93e e741 82bc
00000020: 3797 813c ea67 993c 61d7 933c b6f2 fabb
00000030: 22cf f23c e025 3c3c 001d c93c a4e7 28bd
00000040: 6be8 7f3e 4a27 18bd 1608 2e3d ca00 7ebc
00000050: 9a30 0e3d 5dad 7ebc 194b 173d eb33 0c3c
00000060: 086d b8bc 7410 143d 56f8 cfbc a4d2 093d
00000070: 1712 223d 1960 573c f42a bf3d e129 223d
00000080: 3c7c 9fbc 1f61 a9bc 3bea 173d 24a3 8f3d
00000090: e8fd a4bc cc78 233d 2722 e3bc 1e7f c4bc
000000a0: e8e8 c33d a29f e6bc 5fb5 563c c1ad 5a3c
000000b0: ba09 d2bc 6707 183d aaab 3e3d f0f9 a43c
000000c0: 0712 bd3e e342 bfbc 9256 5e3e 027b ef3c
000000d0: edfa bdbc 45b9 763c 68c4 d73c 3166 8fbc
000000e0: a6c8 b93c bb85 b23b a7e0 ec3c dfc1 b63c
000000f0: 5267 813e b864 5f3e 3366 943e 8a85 103c
0.03825355 0.037724625 -0.020660397 0.023442024 0.21922204 -0.01882236 0.3927542 -0.015900565
0.015819175 0.018726308 0.018047037 -0.007658328 0.029639784 0.0114836395 0.024549961 -0.041236535
0.24991004 -0.037146844 0.04248818 -0.015503118 0.03471432 -0.015544263 0.036936853 0.0085573
-0.022512928 0.036148503 -0.02538697 0.03364815 0.039568033 0.01314547 0.093343645 0.03959072
-0.01946842 -0.020676194 0.037088614 0.070135385 -0.020140603 0.039910123 -0.027726246 -0.023986395
0.09565908 -0.02815229 0.013104766 0.01334709 -0.025639404 0.037116434 0.04655043 0.02013871
0.36927816 -0.023347324 0.21712711 0.02923346 -0.02319094 0.01505882 0.026338771 -0.017504783
0.022678684 0.005448071 0.028915716 0.022309242 0.2527414 0.21815765 0.28984222 0.008820901

tcn.2.conv1.weight_v f4 [64, 64, 3]
00000000: 7ed4 be3a 2d49 d63a fcb9 043b 3341 8339
00000010: 6dde 4739 48d5 a839 8d6d a639 52be 6039
00000020: 4d43 3a38 99a1 253a 552a 543a 29e2 9f3a
00000030: e8ff 9139 1e1b 7439 b4c4 5f39 0454 2aba
00000040: 2c49 35ba 876c 29ba 22da 543a 00dc 4c3a
00000050: 019c 683a abdb 0fb9 8561 38b9 3cd7 2ab9
00000060: 9546 0239 611b a0b8 c076 a0b9 739f 8937
00000070: ce90 1cb9 3437 c3b9 b7fc e5b6 208c 60b6
00000080: b03e c9b7 d1e9 a4b9 dacf 8fb9 853d 94b9
00000090: d783 b3b9 8e0d 00ba 3a0b 32ba 5c79 fbb8
000000a0: 78a7 09b9 68b6 67b8 ec7a 9ab9 aea3 d6b9
000000b0: 973f f9b9 3334 9738 b2dd 87b8 9236 f838
000000c0: 6762 3db8 b4f3 acb8 3f4f 28b8 8bd0 e239
000000d0: b72d 043a 13e2 393a f08d 403a f2c8 5b3a
000000e0: 1d15 893a c65d 91b8 c789 d9b8 7771 deb8
000000f0: 2ae6 48ba 8b9c 2fba 2676 28b8 a2f6 1f39
00000100: 1ac2 fc38 64ed 0239 eec6 e6b9 a51a 64b9
00000110: efca 56b7 c32e c439 9de7 e439 f134 1e3a
00000120: 4d38 86ba ccf3 89ba 9d39 afba e4dd f139
00000130: 9761 d539 2dde c039 0c42 6a3a 4fdb 563a
00000140: f86c 8c3a c1cb cf38 f1a4 4838 13d2 fe37
00000150: c3b9 e537 312d 2e38 25d5 a536 1c8f 9b39
00000160: 9be6 8839 b866 c139 558a d039 bc33 da39
00000170: 33f2 ec39 1713 e3b9 1ca9 bcb9 9801 8db9
00000180: 233e 81b8 69e2 f9b8 5940 feb8 d95f 7239
00000190: 82b3 6639 e330 4939 b35c eeb9 e791 aab9
000001a0: 1a3a 13b9 e6ee fab7 4d4a a1b7 9321 d8b7
000001b0: 7c80 2bb7 4c41 6cb8 c760 93b8 a128 30ba
000001c0: f158 11ba 2981 03ba c420 8539 e319 ba38
000001d0: 39ff 95b9 505e 0ab9 8e98 b238 05df ce39
000001e0: 6ecf 0839 7860 af38 0cee f338 668d cd39
000001f0: 22bf 0739 1922 48b8 0347 bab9 e7a3 fbb9
00000200: 2a36 3bba e015 09ba 65e0 ffb9 6714 10ba
00000210: b47b d239 25a6 2c3a 4ed8 793a a0ca 6aba
00000220: b516 8aba 267f ccba aefa 22ba 0033 e7b9
00000230: 5115 ffb9 71c7 64b9 5b8b 42b9 d3de 29b9
00000240: 4ea1 173a 7c21 1a3a 02a2 523a efe8 a439
00000250: 21a4 9838 2e61 e8b8 1786 6939 3632 4e39
00000260: 3c5e 5639 edb4 883a 8dba 7e3a 3548 1439
00000270: 0425 f2b9 f347 84b9 a913 abb8 5fc7 893a
00000280: 118e 933a dd60 af3a f135 91b8 1d3f f136
00000290: cf0c 103a 3181 093a 5cf3 273a 2fc7 553a
000002a0: 549f 343a ab3a 273a e0f4 073a 19d8 18b8
000002b0: 2d9b bab8 9ae6 03b9 8531 ed39 eac3 e039
000002c0: 477c 6639 2fbb 213a 0512 233a fb75 513a
000002d0: df01 ef38 56ac 0f39 3185 4539 a2ab c7b8
000002e0: e26d 9fb8 94c6 e1b7 773c b2b9 a3cd c8b9
000002f0: 16a9 4b39 65c9 abb8 88fd feb8 c0f1 4ab9
00000300: edc6 063a bdd0 3139 4bf1 2939 67f5 6839
00000310: fa43 c93a 7ee3 053b b7e8 0eba 6b41 88ba
00000320: e407 b9ba e712 383a 7875 0039 4a96 26b8
00000330: 809c d5b9 fec4 90b9 a947 84b8 811e 8c3a
00000340: 38fa 5d3a 1a0c a2b8 b77a f7b9 01c1 b3b6
00000350: 7a49 6d39 3c8b 3239 c024 8539 79c0 4f39
00000360: df24 efb9 afe9 1cb9 1f9c acb9 c802 81ba
00000370: df59 4c38 1d23 3d3a 7aac 30b8 808e fc36
00000380: fbdc 5e38 0d66 bd39 4b5f d937 bf59 04b9
00000390: 4767 c839 2b40 223a 498e 543a 0a4d d839
000003a0: d431 243a 0829 ed39 0c83 153a a62a 993a
000003b0: b874 a43a 6c73 b33a 6e0a b63a f513 feb7
000003c0: e546 e139 6781 1d3a fcd0 e939 b748 afb9
000003d0: 5aa9 0b3a c140 853a 6be2 1eba 87f1 4aba
000003e0: fda6 2aba 72a8 ceb6 0ca0 d938 8f4b 0439
000003f0: a65a 06ba 2464 dbb9 675b a6b8 2338 6038
0.0014559177 0.0016348712 0.0020252457 0.00025034844 0.00019060979 0.00032202364 0.0003174361 0.00021433205
4.4408534e-05 0.00063183304 0.0008093466 0.0012198138 0.0002784722 0.00023279755 0.00021340215 -0.00064975047
-0.00069155055 -0.000646301 0.00081196625 0.0007814765 0.0008873344 -0.00013719375 -0.00017583936 -0.00016292644
0.0001242406 -7.634494e-05 -0.00030606054 1.6405922e-05 -0.00014931263 -0.00037234428 -6.8541517e-06 -3.3460165e-06
-2.3990258e-05 -0.00031454724 -0.00027429947 -0.00028274595 -0.0003423977 -0.00048848323 -0.0006791834 -0.000119912176
-0.00013127725 -5.524457e-05 -0.00029464753 -0.00040939212 -0.0004754036 7.209964e-05 -6.4785956e-05 0.00011835726
-4.5152756e-05 -8.2469924e-05 -4.0128125e-05 0.00043261456 0.00050422124 0.00070908776 0.0007345369 0.000838413
0.0010458563 -6.9316055e-05 -0.00010373029 -0.000106069194 -0.00076636916 -0.0006699047 -4.0164356e-05 0.000152553
0.000120524506 0.00012486201 -0.00044017233 -0.000217537 -1.2802643e-05 0.00037418873 0.00043660114 0.00060351106
-0.0010240168 -0.0010524928 -0.001336861 0.00046132423 0.00040699236 0.00036786628 0.00089362334 0.00081961317
0.0010713628 9.908481e-05 4.783733e-05 3.0376983e-05 2.738543e-05 4.152692e-05 4.9421965e-06 0.0002967053
0.00026111756 0.0003688836 0.00039775917 0.00041618745 0.0004519388 -0.00043311037 -0.0003598415 -0.00026894803
-6.162773e-05 -0.000119154174 -0.000121236495 0.00023114624 0.00022001381 0.00019187065 -0.00045463964 -0.00032533632
-0.00014040657 -2.9913568e-05 -1.9227295e-05 -2.576484e-05 -1.0222309e-05 -5.6327597e-05 -7.0275324e-05 -0.00067199214
-0.00055445643 -0.00050165 0.0002539215 8.873993e-05 -0.0002860965 -0.0001319584 8.516117e-05 0.00039457544
0.00013047244 8.362619e-05 0.000116314826 0.00039205997 0.00012945806 -4.771547e-05 -0.00035529592 -0.00047996567
-0.0007141555 -0.0005229395 -0.00048804577 -0.0005496204 0.00040146487 0.0006586037 0.0009530828 -0.0008956585
-0.0010535332 -0.0015601858 -0.0006217164 -0.0004409775 -0.00048653272 -0.00021818072 -0.00018553196 -0.00016200104
0.0005784229 0.00058796233 0.00080350053 0.00031454067 7.278496e-05 -0.00011080723 0.00022270564 0.00019664396
0.00020443735 0.0010429897 0.0009717129 0.00014141279 -0.00046185416 -0.00025230608 -8.1575774e-05 0.0010511688
0.0011257549 0.0013380308 -6.924186e-05 7.189707e-06 0.00054950727 0.0005245386 0.0006406808 0.0008154986
0.0006890197 0.00063792866 0.00051863305 -3.644088e-05 -8.898075e-05 -0.0001257904 0.00045241058 0.00042870577
0.00021980806 0.0006169555 0.00062206417 0.0007990298 0.000113967566 0.00013701743 0.00018837002 -9.5210286e-05
-7.602178e-05 -2.691456e-05 -0.00033995855 -0.00038300184 0.00019422578 -8.191428e-05 -0.00012158888 -0.0001935428
0.00051413366 0.00016957796 0.00016206985 0.00022216664 0.0015355342 0.0020429785 -0.00054515473 -0.0010395473
-0.0014116731 0.00070218596 0.00012250792 -3.971745e-05 -0.00040743127 -0.0002761259 -6.307598e-05 0.0010690243
0.00084677665 -7.727016e-05 -0.0004720294 -5.3570843e-06 0.00022629453 0.00017027272 0.00025395118 0.0001981276
-0.00045613103 -0.00014964373 -0.00032922716 -0.0009842748 4.872109e-05 0.000721501 -4.21223e-05 7.5267744e-06
5.313473e-05 0.00036124923 2.591279e-05 -0.00012621934 0.0003822392 0.00061893713 0.00081083603 0.0004125613
0.00062635285 0.00045234733 0.00057034264 0.0011685684 0.0012546992 0.0013691015 0.0013888606 -3.0288453e-05
0.00042968165 0.0006008357 0.0004459693 -0.00033432778 0.00053276645 0.0010166393 -0.00060609606 -0.0007741679
-0.00065098685 -6.158888e-06 0.000103771774 0.00012616649 -0.0005125202 -0.00041845546 -7.932522e-05 5.3458043e-05

ln.weight f4 [64]
00000000: 8c8e bf3e e609 c03e 38fb aa3e 492a b63e
00000010: 3a2c 3b3f b8a6 bd3e 243e 833e a034 363f
00000020: 2c8b ad3e 223c b43e 11c0 3f3f acc0 9f3e
00000030: 80aa b33e 1dfc a83e 4306 ae3e 809f d13e
00000040: aa1e 383f 8726 bb3e 5a39 b73e ad02 323f
00000050: b21a 943e 834a 413f f1d3 b83e c3a4 8f3e
00000060: 9744 b33e e054 a73e bbc0 bf3e 3433 3c3f
00000070: 7489 473f bbeb a63e e8df bb3e 11d4 bd3e
00000080: 65df 433f 6b5b 413f 3722 be3e 6335 463f
00000090: 322b 363f 46c7 c73e f695 b23e 6548 b13e
000000a0: d8b7 4b3f a175 ba3e d65f b03e 02b7 bd3e
000000b0: 0454 ba3e 0c5f c33e 9e43 b63e a604 413f
000000c0: 4788 6e3e 9f8b b23e 3f53 363f 68e9 8f3e
000000d0: 0f07 b13e d5cc b13e 754c 903e 8d3d b03e
000000e0: 1b1e b13e dd05 e63e 2a1b 3c3f 2a03 b53e
000000f0: 80d0 203f 1042 3e3f 9c5b 163e cadc a93e
0.37413442 0.37507552 0.3339479 0.35579136 0.7311436 0.3704126 0.25633347 0.7117405
0.33895242 0.35202128 0.74902445 0.31201684 0.3509102 0.33004847 0.33989152 0.40942
0.7192179 0.36552832 0.35785943 0.6953533 0.28926617 0.7550432 0.36099198 0.2805539
0.35013267 0.32681942 0.3745173 0.7351563 0.7794411 0.32601723 0.36694264 0.37075856
0.7651275 0.7553012 0.3713548 0.7742521 0.7115966 0.3901922 0.34880036 0.34625545
0.795774 0.3641787 0.34448117 0.37053686 0.36392224 0.38158453 0.35598463 0.7539772
0.23294173 0.34872147 0.71220773 0.28107762 0.34575698 0.34726587 0.28183332 0.3442196
0.3459328 0.44926348 0.7347895 0.35353976 0.62818146 0.74319553 0.14683384 0.3317626

ln.bias f4 [64]
00000000: d645 ddbc 059f 46bc a12d e0bc 8833 2bbd
00000010: 4295 8ebe 1e8f 3dbd 2389 50bc 210f 703e
00000020: bb06 11bd be96 c2bb eb35 96be 992c 49bc
00000030: dc4a b1ba 1180 b4ba cc96 dfbc 9ad0 88bc
00000040: a7ff 95be 0c60 f1bc c4b6 32bd c7c6 213e
00000050: fcb2 83bc ae30 85be 0010 1fbc ed08 1e3b
00000060: cdb9 07bd ac82 aabc 41d5 d2bc 74db 3f3e
00000070: 7b8d a0be b459 f9bb 4f3f 3abd 7acb a5bb
00000080: 15e6 893e c3ef a1be 9bad b6bc c7c6 2c3e
00000090: 3427 403e 159e 13bc 4bee 21bc ce9e 1fbd
000000a0: d329 4f3e 8856 b4bc a174 42bc 7551 f4bc
000000b0: 93d8 f0bc 8a9f 2bbc e24a 983b 8d9f 9cbe
000000c0: 302c 6fbc 4395 5bbc 3473 91be 31e3 e73a
000000d0: cb86 fcbc 6583 36bd 7b5b 843b b995 ecbc
000000e0: 78f8 1dbd 0913 45bd 3597 193e fe9d adbb
000000f0: 2f1e 8cbe 0727 90be feeb ceba c935 6a3c
-0.02701084 -0.012122874 -0.027365508 -0.04179719 -0.2784825 -0.046279065 -0.012728008 0.23443271
-0.03540681 -0.00593838 -0.2933801 -0.012278699 -0.0013526338 -0.0013771077 -0.027293585 -0.016701031
-0.2929661 -0.029464744 -0.04363133 0.15798484 -0.016076557 -0.26013702 -0.009708405 0.0024114207
-0.033136178 -0.020814262 -0.025736453 0.18736058 -0.3135794 -0.0076095704 -0.045470532 -0.0050596567
0.2693335 -0.31628236 -0.022299578 0.16872703 0.18764955 -0.009009858 -0.009883474 -0.038969807
0.20230798 -0.022013918 -0.011868627 -0.029823998 -0.029400146 -0.010475049 0.0046475986 -0.30590478
-0.014597937 -0.013402286 -0.28408206 0.001769161 -0.030825993 -0.0445589 0.0040392256 -0.028879987
-0.038567036 -0.048113856 0.14999087 -0.005298375 -0.27366778 -0.28154776 -0.0015786884 0.01429505

pi.weight f4 [5, 64]
00000000: 050d 7539 32f5 acb9 2cb8 5039 d849 c739
00000010: 927e 173d 0150 8c39 d5e8 1539 3349 1fbd
00000020: ccb1 8139 7e14 ccb9 9932 293d a28a 36b9
00000030: 9841 29ba cfd5 b2b9 7240 d8b7 edaf 91b9
00000040: 52ab 0f3d 4e07 9e39 6233 0a3a 1a6a 0bbd
00000050: d335 3835 3803 253d bd20 e5b8 a0d9 bbb9
00000060: 754c 3f39 2aa4 e637 bbcb 3438 0b8f 20bd
00000070: 1a23 363d 9894 5ab9 6d51 2839 6c24 49b9
00000080: 1bf3 35bd 89fa 2d3d 3080 2fb9 7c1f 26bd
00000090: 4ac1 17bd da20 c3b9 1cb2 1bb9 4fd0 ad39
000000a0: c33d 00bd d5e7 edb8 b66d 87b9 643a c138
000000b0: 480a 1539 9698 0dba 141c f7b9 abcb 283d
000000c0: 06eb 2eb6 a67f a3b9 de93 113d 36a7 8ab9
000000d0: f6a6 8e39 82f5 083a 345c 02ba 561f bf38
000000e0: ba9c 023a 25d7 7b3a a695 04bd b8b4 98b9
000000f0: f9ef e13c 3dd5 1f3d 15d2 0eb9 bdc6 23ba
00000100: 32a6 eeb9 3144 713a 4e23 01bb 27ae c93a
00000110: 6d87 7d3c cbf2 323b 9a18 41ba 6689 63bc
00000120: 7614 35bb cca2 03bb 8d80 763c f35e 0a3b
00000130: a271 ed3a 4169 f93a 0e02 a5ba a9a8 41ba
00000140: f81b 713c b6bb 863a 6eb8 1f3b f93d 5dbc
00000150: 039f 89ba 8047 4e3c 9cb7 d2b9 f082 d53a
00000160: 934e 0bba 2a62 c3ba b8c3 1cbb 9165 67bc
00000170: 3e43 8c3c a0bd c33a 5eeb 9d3a 02c0 2539
00000180: e128 62bc 8501 7b3c 23a3 47ba b880 92bc
00000190: fc1f 67bc f383 0dbb 99a3 01bb 8daa 66ba
000001a0: 4278 33b9 3f27 1fbb 4753 1a3b 870f 90bb
000001b0: 3b36 033b e5de 653a 4934 a7ba f8ad 663c
000001c0: 0daf 01ba 052c c63a b7b7 773c 4b37 1439
000001d0: b0b8 41ba c1f1 02bb 0440 9039 30ff e7ba
000001e0: b856 0fbb daa9 d63b 655c 81bc 9611 46bb
000001f0: 558d 4e3c 2c4c 663c da84 5939 40d0 303b
00000200: ede3 653b f8ab c4bb bccf 1c3c 419a 06bc
00000210: 916d 43bd d40a acbc 7c0d 693b 1539 313d
00000220: 0482 2f3c 99ff 403c 8c1e 54bd a902 40bc
00000230: cc7f 08bc a83b 62bc 5695 233a 2e29 5ebc
00000240: 0c36 73bd 2106 a6bb 3ca7 14ba fb4a 2c3d
00000250: 9764 483b 369c 3bbd e9dd b43a 5e38 1cbb
00000260: 731d a43b ca31 623c 82e1 8f3b 37c1 4d3d
00000270: 4d82 5ebd f62c 3bbc e1d9 7cbb ec97 27bc
00000280: bb69 343d df4e 4abd d95c 8abb e6d8 733d
00000290: 42f1 3d3d 7deb 7b3b afe2 693c 2ea3 8c3b
000002a0: 0c66 13bc 0716 a13b ece7 58bc a196 113c
000002b0: 3862 43bb c37b cb3a d1ab 4b3c 98dc 6cbd
000002c0: 544a b23a f4d9 12bc 82cf 49bd 2c1f 913b
000002d0: 04b6 923b 1710 693c 7de4 443b 4c99 5f3c
000002e0: caa2 703c a948 cebc f043 bb3d 2142 d73b
000002f0: e3d5 10bd 4e2a 59bd 7117 66ba ff36 3bbc
00000300: 050d 7539 32f5 acb9 2cb8 5039 d849 c739
00000310: 927e 173d 0250 8c39 d5e8 1539 3349 1fbd
00000320: cdb1 8139 7f14 ccb9 9932 293d a28a 36b9
00000330: 9841 29ba d0d5 b2b9 7240 d8b7 edaf 91b9
00000340: 52ab 0f3d 4e07 9e39 6233 0a3a 1a6a 0bbd
00000350: c935 3835 3803 253d bf20 e5b8 9fd9 bbb9
00000360: 734c 3f39 2ba4 e637 becb 3438 098f 20bd
00000370: 1a23 363d 9894 5ab9 6d51 2839 6a24 49b9
00000380: 1ef3 35bd 8afa 2d3d 2e80 2fb9 7b1f 26bd
00000390: 4ac1 17bd da20 c3b9 1cb2 1bb9 4ed0 ad39
000003a0: c33d 00bd d5e7 edb8 b66d 87b9 643a c138
000003b0: 4a0a 1539 9798 0dba 161c f7b9 abcb 283d
000003c0: 02eb 2eb6 a77f a3b9 dd93 113d 36a7 8ab9
000003d0: f6a6 8e39 82f5 083a 355c 02ba 561f bf38
000003e0: ba9c 023a 25d7 7b3a a695 04bd b8b4 98b9
000003f0: f9ef e13c 3cd5 1f3d 14d2 0eb9 bdc6 23ba
0.00023369871 -0.0003298908 0.00019905035 0.00038011256 0.03698594 0.00026762488 0.00014296484 -0.038888168
0.00024737266 -0.0003892518 0.04130802 -0.00017408517 -0.00064566126 -0.00034110105 -2.5779216e-05 -0.0002778763
0.035075493 0.0003014155 0.0005271939 -0.034036733 6.8623666e-07 0.040286273 -0.00010925669 -0.00035829563
0.00018243662 2.7494581e-05 4.3105083e-05 -0.039198916 0.04446707 -0.00020845456 0.00016052062 -0.00019182422
-0.044421297 0.042475257 -0.00016737054 -0.04055737 -0.03704957 -0.00037217775 -0.00014848303 0.00033152333
-0.0313089 -0.00011344223 -0.00025830948 9.213833e-05 0.00014213577 -0.000540146 -0.0004713243 0.041209858
-2.6064822e-06 -0.00031184888 0.035541408 -0.00026445993 0.00027208746 0.0005224572 -0.0004972846 9.1134265e-05
0.00049824605 0.0009606949 -0.03236928 -0.00029126345 0.027580248 0.03902172 -0.00013620437 -0.0006247571
-0.00045518723 0.0009203582 -0.001970488 0.0015386984 0.015474183 0.002730536 -0.00073660316 -0.013887739
-0.0027630604 -0.0020086048 0.015045297 0.0021113723 0.001811553 0.001902856 -0.0012589113 -0.0007387498
0.014716141 0.0010279331 0.0024371403 -0.013503545 -0.001049966 0.012590289 -0.0004019112 0.0016289633
-0.00053141377 -0.0014906575 -0.0023920368 -0.014123336 0.017121907 0.0014933832 0.0012048294 0.00015807155
-0.013803692 0.0153201865 -0.0007615557 -0.017883644 -0.014106747 -0.002159354 -0.001978135 -0.0008799218
-0.0001711557 -0.0024284867 0.0023548172 -0.0043963823 0.0020021338 0.00087688706 -0.0012756671 0.014079563
-0.0004947044 0.001511932 0.015119485 0.00014134978 -0.00073898863 -0.0019980522 0.00027513516 -0.0017699953
-0.0021871757 0.0065510096 -0.015791127 -0.0030222884 0.012606938 0.014056247 0.00020744224 0.0026979595
0.0035078481 -0.0060019456 0.009571012 -0.008215488 -0.047711913 -0.021001257 0.0035561016 0.04326733
0.0107121505 0.011779689 -0.051786944 -0.011719384 -0.00833125 -0.0138081685 0.00062402093 -0.013559623
-0.059377715 -0.0050666486 -0.0005670672 0.042063694 0.0030577534 -0.04580327 0.0013799045 -0.0023837308
0.0050083934 0.013805816 0.0043908963 0.050233092 -0.054323483 -0.011424294 -0.0038582014 -0.010229092
0.044046145 -0.049391624 -0.004222494 0.059533022 0.04637266 0.0038439923 0.014275237 0.0042919135
-0.008996498 0.004915956 -0.013238888 0.00888601 -0.0029813182 0.0015524555 0.012431101 -0.057827562
0.0013602474 -0.008963097 -0.04927016 0.004428765 0.0044772644 0.0142250275 0.0030043416 0.013647389
0.014687249 -0.025181131 0.091438174 0.0065691625 -0.03536023 -0.05301886 -0.0008777297 -0.011426686
0.00023369871 -0.0003298908 0.00019905035 0.00038011256 0.03698594 0.0002676249 0.00014296484 -0.038888168
0.0002473727 -0.00038925183 0.04130802 -0.00017408517 -0.00064566126 -0.00034110108 -2.5779216e-05 -0.0002778763
0.035075493 0.0003014155 0.0005271939 -0.034036733 6.862361e-07 0.040286273 -0.0001092567 -0.0003582956
0.00018243659 2.7494583e-05 4.3105094e-05 -0.03919891 0.04446707 -0.00020845456 0.00016052062 -0.00019182419
-0.044421308 0.04247526 -0.00016737051 -0.040557366 -0.03704957 -0.00037217775 -0.00014848303 0.0003315233
-0.0313089 -0.00011344223 -0.00025830948 9.213833e-05 0.0001421358 -0.0005401461 -0.00047132437 0.041209858
-2.6064813e-06 -0.0003118489 0.035541404 -0.00026445993 0.00027208746 0.0005224572 -0.00049728464 9.1134265e-05
0.00049824605 0.0009606949 -0.03236928 -0.00029126345 0.027580248 0.039021716 -0.00013620435 -0.0006247571

pi.bias f4 [5]
00000000: e8f1 dbbc e5f6 3dbc fdc4 153d e7f1 dbbc
00000010: a499 2d3d
-0.026848748 -0.011594509 0.036564816 -0.026848746 0.04238285
